Lectures/Lecture 10/custom_lenet5.pth (torch, 185170 bytes, 12 tensors)

conv1.weight f4 [6, 1, 5, 5]
0	0xbd75f4d3	-0.060047936
1	0xbe775832	-0.24154738
2	0xbdc86f88	-0.09786898
3	0x3e96e825	0.29473987
4	0x3e176782	0.14785579
5	0xbe8a27c9	-0.2698348
6	0xbd1c9382	-0.038226612
7	0x3df83407	0.121192984
8	0x3eeefe29	0.46678284
9	0x3e61093d	0.2197618
10	0xbe0d9d2b	-0.13829486
11	0x3ddf43b2	0.10901584
12	0x3e38722e	0.18012306
13	0x3ed092be	0.40736955
14	0xbe77b193	-0.24188833
15	0x3df85d00	0.12127113
16	0xbd6b2270	-0.05740589
17	0x3eb7e945	0.35920158
18	0x3e856461	0.26053146
19	0xbd661efd	-0.056181896
20	0xbd107c9a	-0.03527508
21	0x3e03a82d	0.12857123
22	0x3e723ecd	0.23656769
23	0x3d1320eb	0.035920065
24	0xbe21b7a9	-0.15792717
25	0x3ece7778	0.40325522
26	0x3e1534a3	0.1457086
27	0x3df37e4c	0.118893236
28	0xbddc9b03	-0.10771754
29	0xbe4f93dd	-0.20271249
30	0x3f144859	0.57922894
31	0x3ea85087	0.32873937
32	0xbed14f1a	-0.40880662
33	0xbe66bdb5	-0.22533305
34	0xbe5f6911	-0.21817423
35	0x3f2fdcac	0.68696094
36	0xbe42e280	-0.19031715
37	0xbe9894dc	-0.2980107
38	0xbe72c242	-0.23706916
39	0xbe06c42c	-0.13160771
40	0x3ead2928	0.33820462
41	0xbe29066a	-0.16506353
42	0xbe8c2120	-0.27369022
43	0xbe04491d	-0.12918516
44	0x3cbbb7cb	0.022914788
45	0x3e1ec4ec	0.15504807
46	0x3d8f8959	0.07008619
47	0x3cdadb01	0.026715757
48	0xbdc3307b	-0.09530731
49	0xbd4af3b2	-0.049548812
50	0x3daaceae	0.08340202
51	0x3cb5d5f3	0.022196745
52	0xbe6493db	-0.22322027
53	0x3e44f91f	0.19235657
54	0x3e593905	0.21213157
55	0xbe0dcdcc	-0.13848037
56	0xbe6c71bd	-0.23090263
57	0xbeae0010	-0.33984423
58	0x3dde2398	0.10846633
59	0x3ee10c64	0.43954766
60	0xbe1ac34b	-0.15113561
61	0xbedd659b	-0.4324158
62	0xbe649f04	-0.22326285
63	0x3e15fee7	0.14648019
64	0x3f04d739	0.51890904
65	0xbe7dc355	-0.24781545
66	0xbe91ca5a	-0.28474694
67	0x3c56788a	0.013090262
68	0x3e97d715	0.29656282
69	0x3e4e3c0d	0.20140095
70	0xbe413643	-0.18868355
71	0x3de549c4	0.1119571
72	0x3e23c016	0.15991244
73	0xbdc3b6ed	-0.09556375
74	0x3d96b9d8	0.07359666
75	0xbe16dfee	-0.1473386
76	0xbca064be	-0.019579288
77	0xbe93daf4	-0.28877985
78	0xbe7afd38	-0.24510658
79	0xbe87f9ae	-0.26557678
80	0xbd455c8e	-0.04818397
81	0xbea196f9	-0.31560495
82	0xbe655d3a	-0.22398844
83	0xbe55e803	-0.20889287
84	0xbdc5c55c	-0.09656784
85	0xbea1acb7	-0.31577083
86	0xbe8976b5	-0.2684838
87	0xbe919439	-0.28433397
88	0xbc86de42	-0.016463403
89	0xbdf4ea7f	-0.11958789
90	0xbe36def1	-0.17858483
91	0xbd0d78f4	-0.034539178
92	0x3d29720f	0.04136854
93	0xbe162962	-0.14664224
94	0x3e301c03	0.17198186
95	0x3e722ea2	0.23650602
96	0x3e3c5d3e	0.18394944
97	0x3ead2ec9	0.33824757
98	0x3ea296ce	0.3175568
99	0x3e0319b2	0.1280277
100	0xbd75b485	-0.05998661
101	0x3e8a4d3c	0.2701205
102	0x3ea66146	0.3249609
103	0x3f08d602	0.5345155
104	0x3eb1ace4	0.34702218
105	0xbcef48c2	-0.029209498
106	0x3e6c6f7a	0.230894
107	0x3e5b29e5	0.214027
108	0x3f226a8c	0.6344383
109	0x3f2feccb	0.6872069
110	0x3d35f5f9	0.04442403
111	0xbda503f4	-0.080573946
112	0xbea83a5b	-0.32857022
113	0xbec9c29f	-0.39406297
114	0x3dc57174	0.0964078
115	0xbe05a34d	-0.13050576
116	0xbea5b72d	-0.32366315
117	0xbec458b8	-0.38348937
118	0xbe8e0a92	-0.2774244
119	0xbd9d10d2	-0.07669224
120	0xbeb4e2ab	-0.35329184
121	0xbe9f14bc	-0.31070507
122	0xbe248af9	-0.16068639
123	0xbe9fcf87	-0.31213018
124	0xbd138295	-0.036013205
125	0x3ddb8ddd	0.10720418
126	0x3e616016	0.2200931
127	0xbdeb1b9b	-0.11479875
128	0xbdb01af3	-0.0859889
129	0x3d73730e	0.059435897
130	0xbea0a258	-0.31373858
131	0xbdb14820	-0.08656335
132	0xbe3b0af7	-0.18265902
133	0xbeaa34d5	-0.33243433
134	0xbeb46d6c	-0.35239732
135	0xbe0d24b1	-0.13783528
136	0xbed61d1c	-0.41819084
137	0xbf015d14	-0.5053265
138	0xbdaae812	-0.08345045
139	0x3ea1b467	0.3158295
140	0x3d9de287	0.07709222
141	0xbcfafd69	-0.030638414
142	0x3e5c93ad	0.21540709
143	0x3f2c15be	0.67220676
144	0x3eca3155	0.39490762
145	0x3eb000fc	0.3437575
146	0x3ea765f6	0.32694978
147	0x3ed486c7	0.41509077
148	0xbb1f6e0c	-0.0024327068
149	0xbede6f63	-0.43444356

conv1.bias f4 [6]
0	0x3e2788b6	0.16360745
1	0xbd11217b	-0.03543232
2	0xbdb314f5	-0.087442316
3	0xbd9b89dc	-0.07594654
4	0x3db1f860	0.08689952
5	0x3d8949ab	0.06703504

conv2.weight f4 [16, 6, 5, 5]
0	0xbd97efcf	-0.07418787
1	0xbe25ad2c	-0.16179341
2	0xbe84ff81	-0.25976184
3	0xbdeacb4d	-0.11464558
4	0xbc8bb487	-0.017053856
5	0xbe0e25fc	-0.13881677
6	0xbe09a312	-0.13441113
7	0xbd58dd60	-0.052945495
8	0x3ddb6dc0	0.107142925
9	0xbc327ae9	-0.010893562
10	0xbc8903f9	-0.016725527
11	0x3d9c7299	0.07639045
12	0x3da3e7f2	0.080032244
13	0x3cbb71e8	0.022881463
14	0xbcbc2744	-0.022967942
15	0x3e00bae2	0.1257129
16	0x3e64f140	0.22357655
17	0x3e056753	0.13027696
18	0xbdd8fc9f	-0.10595059
19	0xbddfc54e	-0.10926305
20	0x3e649bfd	0.2232513
21	0x3d1f7375	0.038928468
22	0xbe607c85	-0.219225
23	0xbd5d4638	-0.054022044
24	0xbe492100	-0.19641495
25	0xbdcbf500	-0.099588394
26	0xbd9ed0cd	-0.07754669
27	0xbde3bd35	-0.11120073
28	0xbde5e069	-0.112244435
29	0xbdce0a72	-0.10060586
30	0xbe3a3085	-0.18182571
31	0xbe66b6d2	-0.22530678
32	0xbbf3027d	-0.007416068
33	0xbdc0f627	-0.0942195
34	0x3d2aadf5	0.041669805
35	0xbeb3a249	-0.3508475
36	0xbe26a453	-0.16273622
37	0x3b09b314	0.002101128
38	0x3dfd90f9	0.12381167
39	0x3e100491	0.14064242
40	0xbe936077	-0.28784534
41	0xbd804604	-0.062633544
42	0x3e83c037	0.25732586
43	0x3e1f314a	0.15546146
44	0x3d34e56d	0.04416411
45	0x3bbd1b1e	0.005771055
46	0x3e6a8b39	0.22904672
47	0x3e773555	0.24141438
48	0xbd85c7af	-0.06532227
49	0xbd6e465d	-0.058172572
50	0xbcf6fade	-0.03014892
51	0x3bfaf375	0.007658417
52	0xbe68f97d	-0.22751422
53	0xbe60fe28	-0.21971953
54	0xbcb3604b	-0.021896502
55	0xbcb1de77	-0.021712525
56	0xbe43355a	-0.19063321
57	0xbd6b1801	-0.05739594
58	0x3b35046d	0.0027621046
59	0x3e7c320e	0.2462847
60	0xbdefdb0b	-0.11711701
61	0x3d96c928	0.07362586
62	0x3e2f8995	0.17142327
63	0x3e1c0edd	0.15240045
64	0xbca68150	-0.020325333
65	0x3d9a6a5f	0.0753982
66	0x3e58bdfc	0.21166223
67	0x3cfaaf53	0.03060118
68	0xbc8bfb46	-0.01708759
69	0xbda6f3ae	-0.08151947
70	0xbcbcdf1f	-0.023055611
71	0xbe0de1cf	-0.1385567
72	0x3dce7978	0.10081762
73	0x3c86fc84	0.01647783
74	0xbe47f1ad	-0.19525786
75	0xbcdf2a76	-0.027241927
76	0x3c7c3dc5	0.015395586
77	0xbde57351	-0.112036355
78	0x3c70828a	0.01467956
79	0x3c2356ac	0.009969395
80	0xbd9f76ad	-0.077863075
81	0xbd6397c1	-0.055564646
82	0x3d0ec269	0.034853373
83	0xbdea503c	-0.11441085
84	0xbe26e1a6	-0.16297016
85	0xbcfc58ec	-0.03080412
86	0xbdab60e6	-0.08368091
87	0xbdf4b6fc	-0.11948964
88	0xbd93e430	-0.07221258
89	0xbcdb3ae5	-0.026761482
90	0xbc55ef50	-0.013057545
91	0x3c0380a0	0.008026272
92	0x3bb18bca	0.0054182755
93	0x3dee6168	0.116396725
94	0x3c8d303e	0.017234918
95	0xbc11680b	-0.008874903
96	0xbdb5a40f	-0.08869182
97	0x3e5b61ad	0.21423979
98	0x3dc3efef	0.09567248
99	0x3c974eb8	0.018470153
100	0xbc22706a	-0.009914497
101	0x3e699c9b	0.22813646
102	0x3d4711f9	0.048601124
103	0xbd30a60a	-0.043127097
104	0xbe2bc642	-0.16774848
105	0x3e1b9ab5	0.15195735
106	0x3e10c8e6	0.14139137
107	0x3df75761	0.12077213
108	0xbebff9a3	-0.37495145
109	0xbe3ab7af	-0.18234132
110	0x3e355131	0.17706753
111	0x3d4d3e24	0.05010809
112	0xbe67f40d	-0.22651692
113	0xbd71b80f	-0.059013423
114	0x3caac7b4	0.020847179
115	0xbe2050e4	-0.15655857
116	0xbde1ebf4	-0.110313326
117	0xb997a6b2	-0.00028925162
118	0xbe33cc26	-0.17558345
119	0xbdcc764c	-0.09983501
120	0xbd4f2421	-0.050571565
121	0xbd483ab1	-0.048884097
122	0x3d11f953	0.035638165
123	0xbe06bd3a	-0.13158122
124	0xbdf35924	-0.118822366
125	0x3d896cba	0.06710191
126	0x3daaa7ab	0.083327614
127	0x3d189fa3	0.037261616
128	0xbe3c796e	-0.18405697
129	0xbdf16db0	-0.11788499
130	0x3e2d3361	0.16914131
131	0x3c34b01d	0.011028317
132	0xbc4d4933	-0.012529659
133	0x38c54b7f	9.407754e-05
134	0xbe0d3c50	-0.13792539
135	0x3dd2926b	0.10281833
136	0x3dc5a537	0.09650653
137	0x3e086277	0.13318811
138	0xbe2ee793	-0.17080526
139	0xbeae06bb	-0.3398951
140	0x3eb23eaf	0.3481345
141	0x3dc2025f	0.094731085
142	0xbe9d08be	-0.30670732
143	0xbe6bad0e	-0.23015234
144	0xbde76006	-0.11297612
145	0x3e71d9c1	0.23618223
146	0xbe3935ff	-0.18087004
147	0x3d09ca6a	0.033640303
148	0x3b03f169	0.0020132905
149	0xbdcc25ff	-0.09968185
150	0x3d70afea	0.058761515
151	0x3e503dc4	0.20336062
152	0x3ea825fa	0.32841474
153	0x3e65e5e7	0.22450982
154	0xbe501f57	-0.20324455
155	0xbdb8f76e	-0.090315685
156	0x3c47d6d4	0.012197215
157	0x3db040c8	0.08606106
158	0xbd0d5409	-0.03450397
159	0x3dd22f56	0.10262935
160	0xbe164c7c	-0.14677614
161	0xbdd17617	-0.10227602
162	0x3dc141cd	0.09436379
163	0xbc0dbf5b	-0.00865158
164	0x3e126ec6	0.14300069
165	0xbbe68df3	-0.0070359646
166	0xbd697fcd	-0.057006646
167	0xbe2ed856	-0.17074713
168	0xbe0a5a27	-0.13510953
169	0x3d4a2a94	0.049357012
170	0xbd15adae	-0.036542587
171	0xbdc461f3	-0.09588995
172	0xbd952dd2	-0.0728413
173	0xbcb19cfd	-0.021681303
174	0xbd097d2c	-0.03356664
175	0xbe9a07da	-0.30084115
176	0xbd65a8eb	-0.056069296
177	0xbce48c37	-0.02789889
178	0x3e633d9f	0.22191475
179	0x3eb1903d	0.34680358
180	0xbe62d2ad	-0.22150679
181	0x3e08fa89	0.13376822
182	0x3dc1b0b0	0.094575286
183	0x3e8d1381	0.27553943
184	0x3eb77520	0.35831547
185	0xbdd9de8a	-0.10638149
186	0x3e1a4775	0.15066321
187	0x3df182ef	0.11792552
188	0x3e0c6fea	0.13714567
189	0xbe268016	-0.16259798
190	0xbd098980	-0.033578396
191	0x3c90eff9	0.017692553
192	0x3d84ba61	0.064808615
193	0xbdd1d6cc	-0.102460474
194	0xbde3c694	-0.1112186
195	0xbe0ac34b	-0.13551061
196	0x3a290cc2	0.00064487394
197	0xbc97edbc	-0.018545978
198	0x3c10d0cc	0.008838844
199	0x3cfae79a	0.030628014
200	0xbdca3650	-0.098736405
201	0x3d413611	0.047170702
202	0x3de68a9a	0.11256905
203	0x3cffb6f3	0.031215167
204	0xbdda1cda	-0.10650034
205	0x3d8ac975	0.06776706
206	0x3e219c7d	0.15782352
207	0x3e1c3156	0.15253195
208	0xbdbba179	-0.09161658
209	0x3dc50f7d	0.09622095
210	0xbbbba4f3	-0.0057264506
211	0x3aa5095f	0.0012591294
212	0xbe1551a2	-0.14581922
213	0x3caec362	0.0213334
214	0x3d915448	0.070961535
215	0xbcab45b0	-0.020907253
216	0x3d1dc6cf	0.038519677
217	0xbdc55308	-0.096349776
218	0x3d139a1c	0.036035642
219	0x3d9b5c02	0.075859085
220	0x3dedbf45	0.116087474
221	0x3d5ac2ed	0.053408552
222	0xbd5c092d	-0.05371969
223	0x3d53d3c5	0.05171563
224	0xbb8433c4	-0.0040344913
225	0xbdb7da84	-0.089772254
226	0x3d84feb4	0.06493893
227	0xbdea9166	-0.11453514
228	0xbe3fd26f	-0.18732618
229	0x3d3d1bea	0.0461692
230	0xbd2f50b3	-0.04280157
231	0xbd7b0405	-0.06128313
232	0x3ca0d881	0.019634487
233	0x3d1879a1	0.03722537
234	0x3d7ffe14	0.062498167
235	0x3e44c6f3	0.19216518
236	0x3e0bcaa0	0.13651514
237	0x3e0a9bff	0.1353607
238	0x3e04d146	0.12970456
239	0x3e10fb04	0.14158255
240	0x3e1bbaf1	0.15208031
241	0x3d8962f7	0.06708329
242	0x3d2d4109	0.04229835
243	0x3e04d2d6	0.12971053
244	0x3ce144b0	0.027498573
245	0x3d370653	0.044683766
246	0x3d38b10f	0.04509073
247	0x3dd825a7	0.105540566
248	0xbce91c33	-0.02845583
249	0x3c769e0c	0.01505233
250	0x3e1762c5	0.14783771
251	0x3e15677f	0.14590262
252	0x3d94d676	0.07267468
253	0x3e06557a	0.13118544
254	0x3dcbfc1a	0.09960194
255	0x3eabe926	0.33576316

conv2.bias f4 [16]
0	0xbdb39d19	-0.087701984
1	0x3da0ad75	0.07845584
2	0x3d18fa36	0.037347995
3	0x3dd5db98	0.10442275
4	0x3c658e5d	0.014010993
5	0x3d871a03	0.06596758
6	0xbb1e7892	-0.0024180752
7	0x3adfcd5b	0.001707475
8	0x3d33dfc5	0.043914575
9	0x3c64f097	0.013973377
10	0x3d29b202	0.041429527
11	0xbd4e1732	-0.05031509
12	0x3d6b2fed	0.057418752
13	0x3d38b953	0.045098614
14	0x3c06251c	0.0081875585
15	0x3d36b3b0	0.044604957

fc1.weight f4 [120, 256]
0	0xbd4b5750	-0.049643815
1	0xbe32f427	-0.17475949
2	0x3d192eed	0.037398268
3	0x3d6a850c	0.05725579
4	0xbe0bc8f4	-0.13650876
5	0x3e1540d9	0.14575519
6	0x3e31eccc	0.17375487
7	0x3d59ad70	0.05314392
8	0x3db33134	0.08749619
9	0x3e00e391	0.1258681
10	0xbcec0bb0	-0.028814167
11	0x3c0354db	0.008015837
12	0xbdd79496	-0.105263874
13	0xbe1eab1d	-0.15494962
14	0xba3b7b78	-0.0007151882
15	0xbddea5aa	-0.10871442
16	0x3e20aeac	0.15691632
17	0xbc70fb5d	-0.014708367
18	0x3cf2a494	0.029619493
19	0xbdc4950d	-0.09598742
20	0xbd1a3dc8	-0.037656575
21	0x3c3526dc	0.011056628
22	0x3daf368f	0.08555328
23	0xbcb7480a	-0.022373218
24	0xbd9e004a	-0.07714899
25	0x3c93545d	0.017984563
26	0x3d76bd1f	0.060238954
27	0x3d1172a6	0.035509728
28	0xbd9f751a	-0.07786007
29	0x3cb68e1c	0.02228456
30	0x3db527bd	0.0884547
31	0x3d822429	0.06354553
32	0xbe1bdfeb	-0.15222137
33	0xbc61e644	-0.01378781
34	0xbc1d9d97	-0.009620092
35	0x3bb344ea	0.0054708617
36	0xbe32c31b	-0.1745724
37	0x3db28880	0.087174416
38	0x3d472a54	0.04862435
39	0x3cf079a0	0.02935487
40	0xbd462eeb	-0.04838459
41	0x3dbb8143	0.09155514
42	0xbd1eb155	-0.038743336
43	0xbd5b0f71	-0.053481523
44	0xbe308db4	-0.17241555
45	0xbd48abed	-0.048992086
46	0x3db75c71	0.08953179
47	0x3d346150	0.044038117
48	0xbe553620	-0.20821428
49	0xbd15a4f3	-0.03653426
50	0x3c6a520a	0.014301786
51	0x3da886fe	0.08228873
52	0x3d685a2d	0.056726623
53	0x3e076be4	0.13224751
54	0x3c2a90c0	0.010410488
55	0x3df7df4c	0.121031374
56	0x3da81f95	0.08209149
57	0x3ddd5b1c	0.10808393
58	0x3ccd80e3	0.025085872
59	0xbd89d620	-0.06730294
60	0x3cc63d43	0.024199134
61	0xbd16c67a	-0.036810376
62	0xbd02648a	-0.031834163
63	0xbd28fc90	-0.041256487
64	0x3e050fab	0.12994258
65	0x3e3d4e4a	0.18486896
66	0x3de920b5	0.113831915
67	0xbc60b48a	-0.013714919
68	0x3d800528	0.062509835
69	0x3de9eb3f	0.11421823
70	0xbcd85dd0	-0.02641192
71	0xbd72a4cf	-0.059239205
72	0x3e5e75b8	0.21724594
73	0x3d2a1ea1	0.041533116
74	0xbca1b1dd	-0.019738132
75	0x3d60e3fc	0.054904923
76	0x3e7ae12c	0.24499959
77	0x3d93bf74	0.07214251
78	0xbda35b1a	-0.079763606
79	0xbdd260ba	-0.102723554
80	0xbd20e753	-0.039283108
81	0xbd2a80bf	-0.041626688
82	0xbe27e057	-0.16394173
83	0xbd78ea01	-0.06077004
84	0xbe20b961	-0.15695716
85	0xbc071e31	-0.008246944
86	0x3dc6c374	0.097052485
87	0xbc199566	-0.009373998
88	0x3cb4d7f2	0.022075627
89	0xbe29860a	-0.16555038
90	0xbc696a7b	-0.014246578
91	0xbb445b15	-0.0029961516
92	0xbd9b1230	-0.07571828
93	0x3d1442a6	0.036196373
94	0xbdb92784	-0.0904074
95	0xbe24358a	-0.16036049
96	0x3e9d2085	0.30688873
97	0x3d8a94fa	0.06766696
98	0x3d86bee7	0.065793805
99	0xbd516c69	-0.05112878
100	0x3e4b755b	0.19868986
101	0x3d6dfe43	0.05810381
102	0xbd93460c	-0.07191095
103	0x3d25adf5	0.0404491
104	0x3e562253	0.20911531
105	0x3dc9ac22	0.09847285
106	0xbd815798	-0.06315535
107	0x3bbe1f7a	0.005802092
108	0x3e06e198	0.13171995
109	0x3dbbeef8	0.09176439
110	0x3c742949	0.014902421
111	0xbd2404f2	-0.04004378
112	0x3e57adbf	0.21062373
113	0xbdbafbe9	-0.09130079
114	0xbe3e9109	-0.18610014
115	0xbbd3b3f1	-0.0064606597
116	0x3dac20fc	0.08404729
117	0xbd3b77ce	-0.04576855
118	0xbd4014eb	-0.04689495
119	0x3e477439	0.19477929
120	0xbdd680a3	-0.10473754
121	0xbca47912	-0.020077262
122	0xbdaa9aee	-0.08330332
123	0x3d961975	0.07329074
124	0xbe21af00	-0.15789413
125	0xbd906d55	-0.070521034
126	0xbd4b599c	-0.049646005
127	0x3d7ab793	0.061210226
128	0xbdcd03d0	-0.10010493
129	0x3d9942a9	0.074834175
130	0x3dde1e3c	0.108456105
131	0x3d50ba24	0.050958768
132	0x3cf9e47c	0.030504458
133	0x3d66c13e	0.056336634
134	0x3e271feb	0.1632077
135	0xbb98e290	-0.00466568
136	0xbdbd6641	-0.09248019
137	0xbb51c6f3	-0.0032009452
138	0x3d7aa25b	0.06118999
139	0x3d15753a	0.03648875
140	0x3ba20157	0.0049440074
141	0x3d971066	0.07376175
142	0x3d968bb3	0.07350864
143	0x3c9138f2	0.017727349
144	0x3e8240e7	0.25440142
145	0xbd2b419c	-0.041810617
146	0xbcafae40	-0.021445394
147	0xbcaafd3e	-0.020872708
148	0x3deb6898	0.11494559
149	0x3c08e2da	0.008354867
150	0xbd5ae219	-0.05343828
151	0xbb6069c2	-0.0034242724
152	0xbde82d17	-0.11336725
153	0xbd090d3b	-0.033459883
154	0xbcf09a03	-0.029370314
155	0x3de36dd1	0.1110493
156	0x3e4661de	0.19373271
157	0x3d9d0875	0.07667629
158	0x3b9536eb	0.004553666
159	0x3b63320b	0.003466728
160	0x3d858dc3	0.065211795
161	0x3d163888	0.036675006
162	0xbbade20a	-0.005306487
163	0xbd3cf3e9	-0.04613105
164	0x3d882704	0.06648067
165	0x3e3a851a	0.18214837
166	0xbcafb554	-0.021448769
167	0xbdbdb515	-0.09263054
168	0x3d874240	0.06604433
169	0x3e1a6057	0.15075813
170	0xbb2b11ef	-0.0026103219
171	0x3d4e4d4e	0.050366692
172	0xbcae4f6c	-0.021278106
173	0x3cc82e21	0.024436058
174	0xbcb75117	-0.022377534
175	0x3d4c898c	0.049935862
176	0xbd9885bc	-0.07447383
177	0x3db4f5dc	0.088359565
178	0xbd794de5	-0.0608653
179	0x3dc59c3d	0.09648941
180	0x3d78a909	0.06070808
181	0xbda407e3	-0.08009317
182	0x3bf7e9b2	0.0075657004
183	0x3e09ef36	0.13470158
184	0xbde8ed93	-0.11373439
185	0xbdb54170	-0.08850372
186	0xbdfd8dd5	-0.12380568
187	0xbdf5b966	-0.119982526
188	0xbe362d90	-0.17790818
189	0xbc978785	-0.018497238
190	0x3cb07d1c	0.021544032
191	0xbcd8d79e	-0.026470002
192	0xbe8131fe	-0.25233454
193	0xbda1bae9	-0.078969784
194	0x3cf7f692	0.030268941
195	0xbd059cc4	-0.032620206
196	0xbda308ff	-0.079607
197	0xbdc63f8c	-0.09680089
198	0x3d29d9c4	0.041467443
199	0x3da5d2e4	0.08096865
200	0x3e7c9985	0.24667938
201	0xbd8d57e7	-0.06901532
202	0xbd40416b	-0.046937387
203	0x3cdf87ce	0.027286436
204	0xbbd9083d	-0.0066232965
205	0x3ca7f6b5	0.020503381
206	0xbd074d6b	-0.033032816
207	0x3cad182d	0.021129692
208	0xbe15f593	-0.1464446
209	0xbe3199ed	-0.17343874
210	0xbe0e0776	-0.13870034
211	0x3be81149	0.0070821387
212	0xbd08f55f	-0.03343713
213	0xbe410a57	-0.188516
214	0xbe1b556e	-0.15169308
215	0xbe939261	-0.28822616
216	0x3dd93d6b	0.10607418
217	0xbe428fdf	-0.19000195
218	0xbdb22e44	-0.08700231
219	0xbe2278d1	-0.158664
220	0x3e40ce94	0.18828803
221	0xbe00189a	-0.12509385
222	0xbd236ec9	-0.039900575
223	0xbc657797	-0.014005563
224	0x3df3d0ce	0.11905061
225	0xbd1dcf0d	-0.038527537
226	0xbdace107	-0.08441358
227	0x3d7ba731	0.061438743
228	0x3d1b6ea1	0.0379473
229	0xbd51d6f9	-0.051230405
230	0x3da67883	0.081284545
231	0x3e085a2d	0.1331565
232	0x3e338366	0.17530593
233	0x3d6a08a9	0.057137165
234	0x3d5a8248	0.053346902
235	0xbd70be57	-0.058775272
236	0x3d8a4a7b	0.06752487
237	0xbd8ed357	-0.069739036
238	0xbcbbd025	-0.0229264
239	0x3d8b0d35	0.067896284
240	0xbdb0088f	-0.085953824
241	0x3b837daa	0.004012783
242	0x3d98ca79	0.074604936
243	0xbcb5eb7b	-0.022207012
244	0xbda77ef1	-0.08178509
245	0xbdce0086	-0.100586936
246	0xbc124009	-0.0089264
247	0x3e22ffe3	0.15917926
248	0x3cf1d254	0.029519238
249	0x3c970e01	0.018439295
250	0xbde342e2	-0.11096741
251	0x3deec8ce	0.11659394
252	0x3e0414e7	0.12898599
253	0x3e1dfa5e	0.15427539
254	0x3dcc2bdd	0.09969304
255	0xbdfefdde	-0.12450765

fc1.bias f4 [120]
0	0x3da89e0b	0.08233269
1	0x3ab375ad	0.0013691686
2	0x3d419a07	0.047266033
3	0x3d9cad3e	0.07650231
4	0x3d9159de	0.07097219
5	0x3e1f3434	0.15547258
6	0xbda0ae74	-0.07845774
7	0xbc9ebfaf	-0.019378511
8	0xbcd2b43d	-0.02572071
9	0xbcb243b6	-0.021760803
10	0xbd013684	-0.03154613
11	0xbdd4fe21	-0.10400034
12	0xbb13f2e0	-0.0022575185
13	0x3b116a3c	0.0022188565
14	0xbd0361f7	-0.03207585
15	0xbd0d636a	-0.034518637
16	0x3d5fda76	0.0546517
17	0xbcc0e884	-0.023548372
18	0x3d82d9f8	0.063892305
19	0xbb588aa1	-0.0033041614
20	0xbc115a92	-0.008871691
21	0xbccced68	-0.025015548
22	0x3d003008	0.031295806
23	0xbdf4661e	-0.1193354
24	0xbd16a3c8	-0.036777288
25	0x3c3b9830	0.011449859
26	0x3d72706a	0.059189238
27	0x3cf95f9c	0.030441098
28	0x3cd42c3f	0.025900004
29	0xbd30e6a3	-0.043188702
30	0x3ddd1f40	0.10796976
31	0x3a86aa72	0.0010274185
32	0xbd459be0	-0.048244357
33	0xbd31f17d	-0.04344319
34	0xbbae7c9d	-0.0053249137
35	0x3bbc65d3	0.005749443
36	0xbcf841af	-0.030304758
37	0xbceab154	-0.02864901
38	0x3cf76472	0.030199263
39	0x3c9754ef	0.018473117
40	0xbc8a34b8	-0.016870841
41	0xbc22b613	-0.009931105
42	0x3d9a8915	0.075456776
43	0xbd0537ec	-0.032524034
44	0xbd68b092	-0.056809016
45	0xbd08f5b9	-0.033437464
46	0xbd1d37f1	-0.038383428
47	0x3def1909	0.11674697
48	0xbb404228	-0.0029336307
49	0x3c831eb6	0.016005855
50	0xbbea3926	-0.007147926
51	0xbc8418f4	-0.01612518
52	0x3d9a3129	0.07528908
53	0x3de242c6	0.11047892
54	0x3cd10b83	0.025518185
55	0xbd8a416e	-0.06750761
56	0x3ce4a728	0.027911738
57	0xbb37f861	-0.002807163
58	0xbdd68b8d	-0.10475836
59	0x3db35415	0.08756272
60	0x3ca63642	0.020289544
61	0xbd405b77	-0.046962228
62	0x3da009d1	0.07814372
63	0x3d50ad72	0.05094666
64	0x3e04a882	0.12954906
65	0x3cb0c074	0.021576144
66	0xbd254a40	-0.040354013
67	0x3da340ec	0.07971367
68	0x3c2003c9	0.009766527
69	0xbd5be598	-0.053685755
70	0x3cff40e2	0.031158868
71	0xbd5ba323	-0.053622376
72	0xbd5b9b75	-0.053615052
73	0xbd2344a5	-0.039860386
74	0xbbf76541	-0.007549912
75	0x3ca7c59e	0.020479973
76	0xbdb54d13	-0.08852591
77	0x39474c92	0.00019006644
78	0x3c64321c	0.013927963
79	0x3c031d1d	0.008002547
80	0xbdb6cd6a	-0.089258984
81	0x3b5f77ae	0.0034098434
82	0xbd6d0122	-0.05786241
83	0x3dc136d2	0.09434284
84	0xb80eb1fc	-3.40212e-05
85	0x3c2028cd	0.009775353
86	0x3d3a59af	0.045495685
87	0xbc3929fb	-0.011301513
88	0x3d9e9ed8	0.07745141
89	0xbc586c33	-0.01320939
90	0x3d4931cb	0.049119752
91	0x3d90204e	0.07037412
92	0x3d1afeea	0.03784076
93	0x3ccd4fd3	0.025062477
94	0x3d956dda	0.07296343
95	0xbc9711ca	-0.0184411
96	0xbd65a669	-0.056066904
97	0xbd536f21	-0.051619653
98	0x3ccbf201	0.02489567
99	0xbd63f5f5	-0.055654485
100	0x3cd53183	0.026024586
101	0xbd3cac1d	-0.046062578
102	0xbc3e8425	-0.011628185
103	0x3d79ebc7	0.06101587
104	0x3d8163bb	0.0631785
105	0x3d8ce09f	0.068787806
106	0xbc6c20da	-0.014412129
107	0xbd4c0c7a	-0.049816586
108	0x3cbc0d66	0.022955608
109	0x3be5f44e	0.007017649
110	0x3c923c7d	0.017851109
111	0xbdd51b03	-0.10405543
112	0xbc8b28ca	-0.016987223
113	0xbbd845eb	-0.0066001317
114	0x3d5351a9	0.05159155
115	0xbd7a66b4	-0.0611331
116	0xbd9a9718	-0.0754835
117	0x3ddb9a23	0.107227586
118	0xbd0ab63b	-0.033865195
119	0x3ca79bb5	0.02045999

fc2.weight f4 [84, 120]
0	0xbd88654b	-0.06659945
1	0xbd084574	-0.03326936
2	0xbc78f2a1	-0.015194566
3	0x3d1ea0cc	0.038727567
4	0x3b21e655	0.002470394
5	0xbe09c65f	-0.13454579
6	0xbda85497	-0.08219259
7	0x3e3024d6	0.17201552
8	0x3d9db57d	0.07700632
9	0xbd442224	-0.04788412
10	0xbd92fa10	-0.07176602
11	0xbcadd48b	-0.021219512
12	0xbe8ffe52	-0.28123719
13	0xbae71faa	-0.0017633338
14	0xbd884693	-0.06654086
15	0xbe4959a1	-0.19663097
16	0xbcffc3de	-0.031221326
17	0xbdd5effb	-0.10446163
18	0xbe5c4872	-0.2151201
19	0x3dd114cf	0.10209047
20	0x3db20876	0.0869302
21	0xbc96eacc	-0.018422507
22	0xbe0177c5	-0.12643345
23	0x3d718832	0.058967777
24	0x3cd914c3	0.026499158
25	0x3d01aa0a	0.031656303
26	0xbd9e5cdd	-0.07732556
27	0x3d89d8e3	0.06730821
28	0xbe135023	-0.14386038
29	0x3db10706	0.08643918
30	0xbd2715c0	-0.040792227
31	0xbbf2200d	-0.0073890747
32	0xbed31b6a	-0.41231853
33	0x3e12dd36	0.14342198
34	0x3dce9c1e	0.10088371
35	0xbcb65aac	-0.022260033
36	0x3d65ad35	0.056073386
37	0x3d0ecd07	0.034863498
38	0x3e0e4b4a	0.13895908
39	0xbe28245b	-0.16420119
40	0x3dcf9e5d	0.10137627
41	0xbd76146d	-0.060078073
42	0x3e0303b3	0.1279438
43	0xbcab3518	-0.02089934
44	0x3b84a37e	0.00404781
45	0xbd2cd015	-0.04219063
46	0x3d9f59f1	0.07780827
47	0x3d1d0899	0.038338277
48	0x3d1866ad	0.037207294
49	0xbd8df296	-0.06931035
50	0xbd488f7a	-0.048964955
51	0xbc2d1fe7	-0.010566688
52	0x3dab2515	0.08356682
53	0x3e209056	0.1568006
54	0xbd9bdbac	-0.076102585
55	0x3e7bb642	0.24581245
56	0xbd9bdf07	-0.076108985
57	0x3e1189e2	0.14212754
58	0xbd8029c8	-0.06257969
59	0x3d927a49	0.0715223
60	0xbdd60f04	-0.10452083
61	0xbd9998a7	-0.07499819
62	0xbcdd52a7	-0.02701695
63	0xbab9ff19	-0.0014190405
64	0xbd7e2945	-0.062051076
65	0x3ddd414e	0.108034715
66	0x3cdd49b4	0.027012683
67	0xbd7680f0	-0.060181558
68	0x3d12b2fe	0.03581523
69	0xbeddeecf	-0.4334626
70	0x3d7e8d9e	0.062146775
71	0xbd760c17	-0.060070124
72	0xbd2187d8	-0.03943619
73	0xbd3bc5cc	-0.04584293
74	0x3dff6f63	0.12472417
75	0xbe4952ca	-0.19660488
76	0xbd97f077	-0.07418912
77	0x3d7c4616	0.061590277
78	0x3db36f28	0.08761436
79	0xbd749ff2	-0.05972285
80	0xbc7157a0	-0.014730364
81	0x3d90bd90	0.07067406
82	0x3d11800e	0.035522513
83	0xbd23ae67	-0.039961245
84	0xbe68b68b	-0.22725885
85	0xbec103fc	-0.37698352
86	0xbca0bea0	-0.019622147
87	0xbc1d4c8f	-0.0096007725
88	0xbe0a2ff4	-0.13494855
89	0x3e01201d	0.12609906
90	0x3c2aef74	0.010433067
91	0x3d6d09f3	0.057870816
92	0x3d36bd5e	0.04461419
93	0xbd423366	-0.0474123
94	0x3d6d0f9c	0.057876214
95	0xbe4c3d46	-0.19945249
96	0xbd7d048d	-0.061771918
97	0xbbb5b382	-0.0055450806
98	0x3c8c6834	0.017139532
99	0xbd8907e0	-0.06690955
100	0xbd5e6dfe	-0.054304115
101	0x3dc9278c	0.09821996
102	0xbe9ec77d	-0.31011572
103	0xbe8f84df	-0.2803106
104	0x3d3bf8dc	0.045891628
105	0x3d6e57ba	0.05818913
106	0xbe42bc05	-0.19017036
107	0xbd1ab774	-0.03777261
108	0x3e137759	0.14400996
109	0x3ea6ecbc	0.3260249
110	0xbd629f19	-0.05532751
111	0x3dbe1564	0.09281424
112	0x3dc9464b	0.098278604
113	0xbe5addd2	-0.2137368
114	0xbdad484b	-0.084610544
115	0xbd18d8f4	-0.037316278
116	0x3c11e990	0.008905783
117	0xbd49f512	-0.049305983
118	0xbdb72c8e	-0.08944045
119	0xbe687967	-0.22702561
120	0xbd225678	-0.039633244
121	0x3e0019e7	0.12509881
122	0x3ce33717	0.02773623
123	0x3d5985ca	0.053106107
124	0x3e287907	0.16452418
125	0xbc6dd2c8	-0.014515586
126	0x3b942b9a	0.0045217993
127	0x3dd1e069	0.10247881
128	0xbdf026b5	-0.11726133
129	0xbd8d135c	-0.06888458
130	0x3cc7fcb1	0.024412485
131	0xbd0c1981	-0.03420401
132	0x3dfe451a	0.12415524
133	0x3d60e590	0.054906428
134	0xbdc9bb67	-0.09850197
135	0xbe30d9ff	-0.17270659
136	0x3e9eb85d	0.31000033
137	0xbda94c2f	-0.08266484
138	0xbe4d06fe	-0.20022199
139	0x3dace8c3	0.08442833
140	0xbcc0557a	-0.023478258
141	0x3d5e8b9d	0.054332364
142	0x3c9b06e2	0.01892418
143	0xbcca8332	-0.024720762
144	0xbe0d83e5	-0.13819845
145	0x3b078d2b	0.0020683508
146	0x3e40242f	0.18763803
147	0x3d329e16	0.043607794
148	0xbd42a5fa	-0.04752157
149	0x3ccbc138	0.024872407
150	0x3d789b2a	0.06069485
151	0xbd8c78ac	-0.06858954
152	0xbca62fb9	-0.020286428
153	0xbc60a8d9	-0.013712131
154	0x3d4e804f	0.050415333
155	0x3db44345	0.08801893
156	0xbe302be9	-0.1720425
157	0x3da417b9	0.08012337
158	0xbd6d3df0	-0.057920396
159	0xbe084973	-0.13309269
160	0x3d5257eb	0.051353376
161	0xbdbc095d	-0.091814734
162	0x3db47564	0.08811453
163	0xbe7c8f83	-0.2466412
164	0xbd3d7ab1	-0.046259586
165	0x3ddf4080	0.10900974
166	0x3e0feebf	0.14055918
167	0xbe14723d	-0.14496703
168	0x3d214a2c	0.039377376
169	0xbe4cf06c	-0.20013589
170	0xbd96646a	-0.07343371
171	0x3d1c5a57	0.038172092
172	0xbe380c43	-0.17973427
173	0x3e39c351	0.18140914
174	0xbd4d6736	-0.050147258
175	0xbd0c3865	-0.03423347
176	0x3e1a73d2	0.15083244
177	0x3d8d6878	0.069046915
178	0xbd46b842	-0.048515566
179	0xbc010579	-0.00787484
180	0xbdd871ed	-0.105686046
181	0x3e3732f2	0.17890528
182	0xbdfa0acb	-0.1220909
183	0x3dd432f6	0.103612825
184	0xbd906de4	-0.0705221
185	0x3d441dec	0.0478801
186	0x3c35c545	0.011094396
187	0xbbeea115	-0.007282386
188	0xbdb01c73	-0.08599176
189	0x3c6b7e77	0.014373413
190	0x3e60516c	0.2190606
191	0xbdce5158	-0.10074109
192	0xbc03e6bc	-0.008050617
193	0x3e05312e	0.13007042
194	0xbd99dd61	-0.07512928
195	0x3e1919d2	0.14951256
196	0xbda73118	-0.08163661
197	0xbd14f058	-0.036362022
198	0xbe2aadcb	-0.1666786
199	0xbba1457d	-0.0049216137
200	0xbe8a17af	-0.26971194
201	0xbd9f674b	-0.077833734
202	0xbe049a89	-0.12949575
203	0x3a3482e1	0.00068859576
204	0x3e67dbea	0.22642484
205	0x3e04fb06	0.12986383
206	0xbe046945	-0.12930782
207	0xbe29cb43	-0.16581444
208	0xbaf43d7d	-0.0018634048
209	0xbd7aa451	-0.06119186
210	0x3dca3ea8	0.09875232
211	0x3dce8157	0.10083263
212	0x3e2c863c	0.16848081
213	0xbc6fe43e	-0.0146418195
214	0xbe205e06	-0.15660867
215	0xbcc0474e	-0.0234715
216	0xbcd89919	-0.02644019
217	0xbe858273	-0.26076087
218	0x3e0c3a81	0.13694192
219	0x3d3e2e81	0.04643107
220	0xbe790cb5	-0.24321254
221	0xbda19093	-0.078889035
222	0x3e763d8a	0.24046913
223	0x3e24fcc3	0.16112046
224	0xbd0183af	-0.031619724
225	0x3e3090ec	0.17242783
226	0x3e0d7055	0.13812383
227	0x3d3ab19d	0.04557954
228	0x3c98e7e5	0.018665263
229	0xbe7fbba7	-0.24973927
230	0xbe1bb824	-0.15206963
231	0xbe0ec4b3	-0.13942222
232	0xbca6780c	-0.020320915
233	0x3e8ae4a7	0.27127573
234	0xbd2895fc	-0.04115866
235	0xbd85b3a2	-0.06528403
236	0xbca26e10	-0.019827873
237	0xbd25966f	-0.040426668
238	0x3bca23ea	0.006168832
239	0x3d9f85e0	0.077892065
240	0x3e5eb2ce	0.21747896
241	0xbd1e0a40	-0.038583994
242	0x3de4146a	0.11136706
243	0x3e02d2e8	0.12775767
244	0x3e0aef19	0.13567771
245	0x3e110df5	0.1416548
246	0xbd0bfd6e	-0.034177236
247	0xbc927e4f	-0.017882494
248	0xbe8d8563	-0.27640828
249	0xbb1fd7c6	-0.0024390086
250	0xbd6e2e26	-0.05814948
251	0xbc83883e	-0.016056176
252	0x3d892794	0.06697002
253	0xbdb955ce	-0.09049569
254	0x3aa0df79	0.0012273631
255	0xbe58c07e	-0.2116718

fc2.bias f4 [84]
0	0x3c336961	0.010950417
1	0x3e1516e2	0.1455951
2	0x3dd58493	0.10425677
3	0xbd011333	-0.03151245
4	0x3deac15e	0.11462663
5	0xbd976485	-0.073922195
6	0x3dd3e0fe	0.10345648
7	0x3dc7a2c4	0.09747842
8	0xbae45ffd	-0.0017423626
9	0xbd8bf8a1	-0.068345316
10	0x3e163f6f	0.14672635
11	0x3d1d329c	0.038378343
12	0x3d4fb0af	0.050705608
13	0x3d8167a1	0.06318594
14	0x3db4be2f	0.08825337
15	0xbda8739c	-0.08225176
16	0xbdf4338e	-0.11923896
17	0xbd5c7428	-0.053821713
18	0xbc22e9ac	-0.009943407
19	0x3b4504c5	0.0030062657
20	0xbcb19a42	-0.021680001
21	0x3d71a940	0.0589993
22	0x3e14edea	0.14543882
23	0xbdc92e25	-0.098232545
24	0xbde0105c	-0.1094062
25	0xbdae374e	-0.08506642
26	0x3dae494d	0.08510075
27	0x3c5ef96e	0.013609273
28	0x3d973479	0.07383055
29	0xbdb636a3	-0.0889714
30	0x3cc36eb1	0.023856493
31	0x3cc9fed8	0.024657652
32	0x3d0fc779	0.03510234
33	0xbd4d4967	-0.05011883
34	0x3d90b0c9	0.07064969
35	0xbd806604	-0.06269458
36	0x3da03c25	0.07823972
37	0xbdca50eb	-0.09878715
38	0x3d340c5f	0.04395711
39	0xbe2b1e4e	-0.16710779
40	0x3dbe8f3b	0.09304663
41	0x3dfc5c2a	0.123222664
42	0x3d3e8271	0.046511117
43	0x3c755430	0.014973685
44	0xbd0888d6	-0.033333622
45	0xbdf8108f	-0.12112533
46	0xbdbfe479	-0.093697496
47	0xbd7dc0cf	-0.061951455
48	0x3d5ffa31	0.05468196
49	0x3deb21d8	0.114810646
50	0x3d2e540b	0.04256062
51	0xbc13a67f	-0.009011864
52	0x3e0ccc92	0.13749912
53	0xbc9e92e2	-0.019357149
54	0xbd29b6b6	-0.041434012
55	0xbd6d4090	-0.0579229
56	0x3c578c81	0.013156057
57	0xbc1ae687	-0.009454376
58	0x3d3b484a	0.045723237
59	0x3d76fade	0.06029784
60	0xbe0e39b2	-0.13889197
61	0xbd9f48b9	-0.077775426
62	0x3c869c05	0.016431818
63	0x3dcb63aa	0.09931119
64	0xbd44bfdf	-0.048034545
65	0xbd5ff847	-0.054680135
66	0x3d9bad40	0.07601404
67	0x3e17f3ee	0.14839146
68	0xbd1c784d	-0.038200665
69	0xbbfb4445	-0.0076680505
70	0xbda97afe	-0.08275412
71	0xbdbb4dd7	-0.09145706
72	0x3d560e66	0.052259825
73	0x3e1501c2	0.14551452
74	0xbcf3d53f	-0.02976477
75	0x3dd24b6f	0.10268294
76	0x3d9c31e7	0.076267056
77	0x3d7b045a	0.061283447
78	0x3cf0e265	0.029404828
79	0xbdb95b65	-0.09050635
80	0xbd9a96dd	-0.07548306
81	0x3d37117a	0.0446944
82	0x3dc5edd6	0.09664504
83	0x3de910ae	0.113801345

fc_y1.weight f4 [10, 84]
0	0xbd59b740	-0.053153276
1	0x3cd67837	0.02618037
2	0xbe03a554	-0.12856036
3	0xbe4276e0	-0.1899066
4	0x3da2bcc1	0.07946158
5	0xbeb0b290	-0.34511232
6	0xbea0c9e5	-0.31404033
7	0x3cf8bbd3	0.030362999
8	0xbe689420	-0.22712755
9	0xbf00c9ab	-0.5030772
10	0xbda14b38	-0.07875675
11	0xbed6c8b4	-0.4195
12	0x3dd29c2d	0.102836944
13	0xbed2a2bd	-0.41139784
14	0x3dc5e576	0.09662907
15	0xbe3bbaf3	-0.18333034
16	0xbdfbe1b3	-0.12298908
17	0xbbffadc9	-0.007802699
18	0x3e2d800d	0.16943379
19	0xbea96fe4	-0.33093178
20	0x3df2656b	0.1183575
21	0xbe83391e	-0.25629514
22	0x3de50ee7	0.11184483
23	0xbe8022d7	-0.2502658
24	0x3da3c661	0.07996822
25	0x3d4cfa4e	0.050043397
26	0xbc2309f9	-0.009951108
27	0xbe9f6af8	-0.31136298
28	0xbec74858	-0.3892238
29	0xbecd0191	-0.40040258
30	0xbe00fd8e	-0.12596723
31	0xbd63de74	-0.05563207
32	0xbebbaa65	-0.36653438
33	0xbe966daa	-0.29380542
34	0x3d6215bc	0.05519651
35	0x3d9ec269	0.077519245
36	0x3d273620	0.040823102
37	0x3c4898e6	0.012243485
38	0xbe9e77a9	-0.30950668
39	0xbe2d8bd3	-0.1694787
40	0xbe41d9eb	-0.18930785
41	0xbe2eb0ae	-0.17059585
42	0xbe214645	-0.15749462
43	0xbe8e9529	-0.27848175
44	0xbe9f6966	-0.311351
45	0xbe0ae9f4	-0.13565809
46	0xbca69bf9	-0.020338045
47	0x3d8a0af6	0.06740372
48	0x3d700776	0.058600865
49	0xbe94e974	-0.2908436
50	0x3d8802e9	0.0664118
51	0x3ca55a56	0.020184677
52	0xbe87a0a8	-0.26489758
53	0x3d67d4d5	0.056599457
54	0xbeafd52d	-0.34342328
55	0xbe586d0a	-0.21135345
56	0xbeb21f86	-0.34789675
57	0xbe76ad85	-0.2408963
58	0xbe5786fc	-0.21047586
59	0xbe38a63e	-0.18032166
60	0x3ded3079	0.11581511
61	0xbe7d8423	-0.24757437
62	0x3d3188e2	0.043343432
63	0xbe592b53	-0.21207933
64	0xbeb6bd5c	-0.35691345
65	0xbea70dd3	-0.32627735
66	0x3ba3d962	0.0050002793
67	0xbe9460aa	-0.2898
68	0xbe0b7c8e	-0.13621733
69	0xbc47f879	-0.012205237
70	0x3d9908cf	0.07472383
71	0xbd6ba34d	-0.057528783
72	0x3b1478fd	0.0022655122
73	0xbc2ed41e	-0.01067069
74	0xbd960475	-0.07325069
75	0xbe7ec9df	-0.24881695
76	0xbe6790fc	-0.22613901
77	0x3dc12211	0.09430326
78	0x3da7154a	0.081583574
79	0x3e5a2eda	0.21306935
80	0x3d7c0fb4	0.061538413
81	0xbea7d4e0	-0.32779598
82	0xbdf21a51	-0.11821426
83	0xbe85f914	-0.26166594
84	0xbec35354	-0.38149512
85	0xbe21ea4a	-0.1581203
86	0xbe432e3c	-0.19060606
87	0x3c4a43e6	0.01234529
88	0xbd44704a	-0.04795865
89	0x3e1c3449	0.1525432
90	0xbd38d47c	-0.045124516
91	0xbc9c937e	-0.019113299
92	0x3e53a939	0.20670022
93	0x3e5fe48e	0.2186453
94	0xbeb3fa3d	-0.35151854
95	0xbcbd38ad	-0.023098314
96	0x3d922825	0.07136563
97	0x3d9b8e0f	0.07595455
98	0xbc8f97ff	-0.017528532
99	0x3d4e8e3f	0.050428625
100	0x3e7f59e2	0.24936631
101	0xbdb6c4a8	-0.08924228
102	0x3e0516e4	0.12997013
103	0x3e180b90	0.1484816
104	0xbd74e1fc	-0.059785828
105	0x3e7c4593	0.24635915
106	0xbe3cdaa6	-0.18442783
107	0x3e5edfa8	0.21765006
108	0x3db5054e	0.088389024
109	0xbe09d69f	-0.13460778
110	0xbda5ea0a	-0.0810128
111	0xbdaaa6dc	-0.08332607
112	0xbe7458b2	-0.2386196
113	0xbd8de9e5	-0.069293775
114	0x3e618943	0.22025017
115	0xbeb6239f	-0.35574052
116	0x3e33d6ba	0.1756238
117	0xbd2eaa94	-0.042643145
118	0x3e7859a7	0.2425295
119	0xbd70fe26	-0.058836125
120	0xbdeec60f	-0.116588704
121	0xbe7a8a32	-0.2446678
122	0xbc37eab6	-0.011225393
123	0xbd16a81e	-0.036781423
124	0xbe8e39ec	-0.27778566
125	0xbe750e60	-0.23931265
126	0x3e5019c5	0.2032233
127	0x3e3b5c6c	0.18296975
128	0x3e3c20fd	0.18371959
129	0xbb9bc21e	-0.004753365
130	0xbe4a2ea4	-0.19744354
131	0xba56629b	-0.00081781455
132	0x3dbb1ac4	0.091359645
133	0x3de5bd63	0.11217763
134	0xbd24e5ff	-0.040258404
135	0xbe4594d6	-0.19295058
136	0x3dc2ccc8	0.09511715
137	0xbe9c56c1	-0.30534938
138	0xbd15156b	-0.03639738
139	0x3e272e43	0.16326241
140	0x3ce678a7	0.028133703
141	0xbda8830f	-0.082281224
142	0xbc844701	-0.016147139
143	0xbe2e7b9c	-0.1703934
144	0x3c1ddfbb	0.009635861
145	0xbe11f807	-0.14254771
146	0xbe77f81a	-0.24215737
147	0xbd946d83	-0.0724745
148	0xbe8a1e8a	-0.26976424
149	0x3d88d92d	0.06682048
150	0x3dbd1f13	0.092344426
151	0x3d017ac2	0.03161121
152	0xbe63bedb	-0.22240774
153	0x3e052185	0.13001068
154	0x3e35736a	0.17719808
155	0xbcd792cb	-0.026315114
156	0x3d8ec331	0.069708236
157	0x3c2d08f7	0.010561219
158	0x3ce906cb	0.028445622
159	0x3dcf8663	0.10133054
160	0x3c98838d	0.018617416
161	0xbe568673	-0.20949726
162	0xbe2c74d9	-0.16841449
163	0xbd0b3b4f	-0.033992108
164	0xbe8da29d	-0.27663127
165	0xbe17e936	-0.14835057
166	0x3e18872a	0.14895311
167	0x3e1257da	0.14291325
168	0x3cfddc7d	0.030988926
169	0x3c436a5a	0.011927212
170	0xbe678042	-0.2260752
171	0xbd8028d4	-0.06257787
172	0x3d3daff4	0.04631038
173	0xbe26a59e	-0.16274115
174	0xbe619a03	-0.22031407
175	0xbe5a3b1c	-0.21311611
176	0x3e19eb05	0.15031059
177	0xbea89f70	-0.3293414
178	0x3cce2093	0.025162017
179	0x3d63547e	0.0555005
180	0x3d157d83	0.03649665
181	0xbcf95c30	-0.030439466
182	0xbe8bb9ca	-0.27290183
183	0xbca38457	-0.019960565
184	0xbe31e52a	-0.17372575
185	0x3db24081	0.087037094
186	0xbec462f5	-0.38356748
187	0x3d405a95	0.046961386
188	0x3d28555e	0.041097037
189	0x3e4b2cbe	0.19841287
190	0x3dffdf90	0.12493813
191	0xbe6ca5e2	-0.23110154
192	0xbe2efbc0	-0.17088223
193	0xbe4ba05e	-0.19885394
194	0xbe9ab7f1	-0.3021846
195	0x3ded1817	0.115768604
196	0xbe131e93	-0.14367132
197	0xbeacb97d	-0.33735266
198	0xbdee1a0c	-0.11626062
199	0xbe261e6b	-0.16222541
200	0xbecfb043	-0.40564165
201	0x3e585af8	0.21128452
202	0x3b80aeee	0.0039271032
203	0x3e14c2d4	0.14527446
204	0xbe5a180e	-0.21298239
205	0x3e02864b	0.12746541
206	0xbd649021	-0.055801515
207	0xbe906bf0	-0.2820735
208	0x3e078825	0.13235529
209	0xbe07e786	-0.13271913
210	0x3e0d5c84	0.13804823
211	0xbdc19652	-0.094524994
212	0x3de8e354	0.113714844
213	0xbe1f4552	-0.15553787
214	0x3e3859fc	0.18003076
215	0x3d83b27b	0.06430527
216	0x3deae9e1	0.1147039
217	0x3e460a73	0.19339924
218	0xbead74d6	-0.338782
219	0xbdf572b4	-0.119847685
220	0x3c34f361	0.011044354
221	0x3e12de3b	0.14342587
222	0x3e4604ea	0.19337812
223	0x3e2a1a34	0.16611558
224	0xbd81f308	-0.06345183
225	0xbe1081b8	-0.14111984
226	0x3c28e945	0.010309522
227	0x3d34ce06	0.04414179
228	0x3aedda84	0.0018146788
229	0x3ea205b7	0.31644985
230	0xbde7fa44	-0.11327031
231	0xbeaab7f4	-0.3334347
232	0x3e151156	0.14557394
233	0x3e39a6f7	0.18130098
234	0x3d04bca9	0.032406483
235	0xbda747aa	-0.08167966
236	0xbcebdae9	-0.028790908
237	0x3e2810a4	0.16412598
238	0x3d82f0f3	0.06393614
239	0xbcab24c1	-0.020891549
240	0x3d78b2e5	0.060717482
241	0x3d40d09d	0.04707395
242	0xbdc3eadc	-0.0956628
243	0x3e739118	0.23785818
244	0xbdff24e6	-0.1245821
245	0x3d86b4ad	0.0657743
246	0xbe04f53f	-0.12984179
247	0x3e1cbce3	0.1530643
248	0xbe0f4d33	-0.13994293
249	0xbd429499	-0.047504995
250	0xbe77cdda	-0.2419962
251	0xbe6293c9	-0.22126688
252	0xbd489df6	-0.04897877
253	0x3e4c0c3a	0.19926539
254	0xbdf472fb	-0.11935993
255	0x3e3b5104	0.18292624

fc_y1.bias f4 [10]
0	0xbce1fcaf	-0.02758631
1	0xbcf1f22f	-0.029534427
2	0x3d993cd6	0.07482307
3	0xbcddad5d	-0.027060205
4	0x3dae2196	0.085025
5	0x3d737f8b	0.059447806
6	0xbe1cceb0	-0.1531322
7	0x3dc26733	0.0949234
8	0x3d8dfc0f	0.06932842
9	0xbdc16769	-0.09443552

fc_y2.weight f4 [10, 84]
0	0xbd8d92db	-0.06912776
1	0x3e0aec2f	0.1356666
2	0xbdebd399	-0.115149684
3	0xbdb3339c	-0.08750078
4	0x3e43a051	0.19104125
5	0xbe84ec8e	-0.25961727
6	0x3cce9b6d	0.025220597
7	0x3d806a5f	0.06270289
8	0xbe3b715d	-0.18304963
9	0xbefb3b25	-0.4906856
10	0x3d298b59	0.041392658
11	0xbe35c070	-0.1774919
12	0x3e668156	0.22510275
13	0xbea64c92	-0.32480294
14	0x3e2b7cac	0.16746777
15	0xbdfaaca2	-0.12239958
16	0xbd0a91ea	-0.03383056
17	0x3d373351	0.044726674
18	0x3e894330	0.26809072
19	0xbe7f65ef	-0.24941228
20	0x3e40169a	0.18758622
21	0xbe16af8f	-0.14715408
22	0x3e7456c2	0.2386122
23	0xbdec7a31	-0.11546744
24	0x3e14081a	0.14456216
25	0x3d550a1f	0.052011605
26	0x3d5cba91	0.05388886
27	0xbeb5fd54	-0.35544837
28	0xbe967da3	-0.29392728
29	0xbec82e72	-0.39097935
30	0xbe0cc661	-0.1374755
31	0x3de49318	0.111608684
32	0xbdfe55e0	-0.12418723
33	0x3c2cb9d6	0.010542354
34	0x3e1f187f	0.15536688
35	0x3e71d1f6	0.2361525
36	0xbc07d606	-0.008290773
37	0x3e3843ee	0.17994663
38	0xbeb41327	-0.35170862
39	0xbe523a64	-0.20530087
40	0xbe1c0670	-0.1523683
41	0x3ce5e4da	0.028063226
42	0xbdf0820e	-0.11743556
43	0xbddce0b4	-0.10785046
44	0xbe76f78d	-0.2411787
45	0xbdc53e00	-0.09630966
46	0x3d9792fd	0.07401083
47	0x3dda762c	0.10667071
48	0x3e3a9375	0.18220313
49	0xbdd0d6c6	-0.10197215
50	0x3e2169c0	0.15762997
51	0xbd48c643	-0.049017202
52	0xbe4e64d2	-0.20155647
53	0x3d875607	0.06608205
54	0xbea1c37d	-0.31594458
55	0xbded09fe	-0.115741715
56	0xbe9150d6	-0.28381985
57	0xbe8f19b1	-0.27949288
58	0xbdde4492	-0.108529225
59	0xbdc774dd	-0.09739087
60	0x3e1ec265	0.15503843
61	0xbda979d6	-0.082751915
62	0x3df61246	0.12015204
63	0xbe4a89cf	-0.19779132
64	0xbe60d939	-0.21957864
65	0xbe311c7d	-0.17296024
66	0x3deaebe0	0.11470771
67	0xbe9fea13	-0.31233272
68	0xbd75b5d1	-0.059987847
69	0x3e265001	0.16241457
70	0x3e586a98	0.21134412
71	0xbd6ba381	-0.057528976
72	0x3d3586b4	0.044317916
73	0x3db1d95b	0.086840354
74	0x3b13007f	0.0022430716
75	0xbe0fde48	-0.14049637
76	0xbe306616	-0.17226443
77	0x3e2a149d	0.16609426
78	0x3e0b2ac1	0.13590528
79	0x3e4276fc	0.18990701
80	0x3e29369b	0.16524737
81	0xbe4e9f8f	-0.20178054
82	0xbd9e9373	-0.077429675
83	0xbe9b5f82	-0.30346304
84	0xbef36bd6	-0.4754321
85	0xbe624d04	-0.22099692
86	0xbe5fa465	-0.21840055
87	0x3c11912c	0.008884709
88	0xbe57de85	-0.21080978
89	0x3e109403	0.14118962
90	0x3e440883	0.19143872
91	0x3cb91a2f	0.022595493
92	0x3e4dbe1a	0.20092049
93	0x3d8a7e43	0.06762364
94	0xbe5d807e	-0.21631047
95	0x3deb1e65	0.11480407
96	0x3e1233d9	0.14277591
97	0x3e466666	0.19375
98	0x3d9e98c9	0.07743985
99	0x3dc0b598	0.09409636
100	0x3d1076d3	0.03526957
101	0xbd349157	-0.04408392
102	0x3dd7320e	0.10507594
103	0x3dc33ebb	0.09533449
104	0xbcac7b64	-0.021054931
105	0x3d17444c	0.036930367
106	0xbe5b1316	-0.21394
107	0xbe10e0ee	-0.14148304
108	0x3db32432	0.08747138
109	0xbe705fbd	-0.23474021
110	0xbd838d6a	-0.06423457
111	0xbe35f9b8	-0.17771041
112	0xbe06e7b2	-0.13174322
113	0xbdeb8bdd	-0.11501286
114	0xbe607dd4	-0.21923
115	0xbd865298	-0.06558722
116	0xbdee0570	-0.11622131
117	0x3ea0db6f	0.31417415
118	0x3e49f75e	0.1972327
119	0xbe2de4f2	-0.16981867
120	0xbdb9d4ba	-0.090737775
121	0xbf02a5fe	-0.51034534
122	0x3b87fee6	0.0041502593
123	0xbd6faaa2	-0.058512338
124	0xbe8199c9	-0.2531264
125	0xbe0473b4	-0.12934762
126	0xbc819030	-0.015815824
127	0x3dc2dcd8	0.09514779
128	0x3e34a816	0.17642245
129	0x3ba5d0c6	0.005060288
130	0xbe3e4eb8	-0.18584716
131	0xbe0fd4ef	-0.14046071
132	0x3dbb754d	0.09153233
133	0xbe34a346	-0.17640409
134	0xbe4e1dbf	-0.20128535
135	0xbe066be7	-0.13127099
136	0x3d258628	0.040411144
137	0xbe469809	-0.19393934
138	0x3d410484	0.047123447
139	0x3dbc1039	0.09182782
140	0x3c3b554a	0.011433909
141	0xbe71e854	-0.23623782
142	0x3dea80d8	0.11450356
143	0xbe3b2558	-0.18275964
144	0x3be2ac4c	0.006917512
145	0xbe5fea34	-0.21866685
146	0xbe20464f	-0.1565182
147	0xbe1204eb	-0.14259689
148	0xbe02e227	-0.12781583
149	0x3c30381d	0.010755566
150	0x3deba963	0.11506917
151	0x3dc6d014	0.097076565
152	0xbe996edf	-0.299674
153	0x3e29858d	0.16554852
154	0xbcc40a88	-0.023930803
155	0xbd1dd3c5	-0.038532037
156	0x3e0b7c82	0.13621715
157	0x3d61d26d	0.05513232
158	0x3e6f8945	0.23392208
159	0x3dbbe073	0.0917367
160	0xbc502063	-0.012703034
161	0xbe1a4562	-0.1506553
162	0xbd5f7ad9	-0.054560516
163	0xbe9c7bbc	-0.30563152
164	0xbe91a485	-0.2844583
165	0xbeb11a60	-0.34590435
166	0x3e83e0bf	0.25757405
167	0xbe4cc5e1	-0.1999736
168	0x3e1c2d9d	0.15251775
169	0xbe72b6a6	-0.23702487
170	0xbe842e00	-0.25816345
171	0x3cd95da5	0.026533911
172	0xbe11f3b7	-0.14253126
173	0xbe91e772	-0.2849689
174	0xbdfd47d2	-0.12367214
175	0xbebed0b0	-0.3726859
176	0x3e34942c	0.17634648
177	0xbecd0dbb	-0.40049538
178	0xbc940127	-0.018066956
179	0xbc8de1cb	-0.01731958
180	0x3ca6ebfa	0.020376194
181	0xbdb78fd3	-0.08962979
182	0xbe7f5616	-0.24935183
183	0xbc630d37	-0.013858131
184	0xbe13f222	-0.14447835
185	0x3e471be2	0.1944423
186	0xbe41f1fd	-0.18939967
187	0x3dc8887e	0.09791659
188	0x3d9bdd83	0.076106094
189	0x3d866588	0.06562334
190	0xbd1074a0	-0.035267472
191	0xbe79a133	-0.24377899
192	0xbe27f780	-0.16403008
193	0xbe1f05c4	-0.15529543
194	0xbec431c7	-0.38319227
195	0xbd8b296e	-0.067950115
196	0xbd6f6636	-0.058447085
197	0x39079576	0.00012930282
198	0x3ea27262	0.31727892
199	0xbe765779	-0.24056806
200	0x3e32ee50	0.17473722
201	0xbc2c732a	-0.010525504
202	0x3d14f1ab	0.036363285
203	0x3e1abd1f	0.15111206
204	0xbe5c99bf	-0.21543024
205	0x3d067a08	0.03283122
206	0xbe3abe2e	-0.1823661
207	0xbe8d9984	-0.27656186
208	0xbd6e439b	-0.058169942
209	0x3d88e14b	0.06683596
210	0x3dfa9200	0.122348785
211	0xbdf77c8b	-0.120843016
212	0x3cf5f6b6	0.030024868
213	0xbe21ef39	-0.15813912
214	0x3e030919	0.12796439
215	0x3e450c4d	0.19242974
216	0x3dfe4137	0.124147825
217	0xbe2bcf2a	-0.16778246
218	0xbe4e8f0c	-0.20171756
219	0xbe985791	-0.29754308
220	0xbc9fffc4	-0.019531138
221	0x3e4edc1c	0.20201153
222	0x3e1dbeaf	0.15404771
223	0x3d0375ff	0.03209495
224	0xbb6ea424	-0.0036413753
225	0xbe4587ea	-0.19290128
226	0x3e724ac3	0.23661332
227	0x3de44fb2	0.11148013
228	0x3b9542ab	0.0045550666
229	0x3da5fadc	0.08104488
230	0xbe7fd6cd	-0.24984284
231	0xbe967153	-0.29383335
232	0x3cccbbb5	0.02499185
233	0xbe11d0dd	-0.14239831
234	0x3decfeab	0.115720116
235	0xbe64a73a	-0.22329417
236	0xbd0a7039	-0.03379843
237	0x3df7de95	0.12103001
238	0x3d9f632d	0.07782588
239	0xbc0e1f42	-0.008674445
240	0x3dbf69a5	0.09346322
241	0xbe86fcd4	-0.26364768
242	0xbe5ff070	-0.21869063
243	0x3ccf7450	0.025324017
244	0xbe8a30c4	-0.2699033
245	0x3de3cbf4	0.11122885
246	0x3c0add07	0.008475549
247	0x3e33bac8	0.1755172
248	0x3c501b6a	0.0127018485
249	0xbb8f67a4	-0.0043763686
250	0xbe65a4e4	-0.22426182
251	0xbe060881	-0.13089181
252	0xbcae13b4	-0.02124963
253	0x3ddd0fe4	0.107940465
254	0xbe18c265	-0.14917906
255	0xbdb3b391	-0.08774484

fc_y2.bias f4 [10]
0	0x3de6cfa4	0.11270073
1	0x3caee054	0.021347202
2	0x3cd069cf	0.025441078
3	0xbc761a8e	-0.01502098
4	0x3d5daf0a	0.05412201
5	0x3c6660cd	0.014061165
6	0xbe29cf4b	-0.16582982
7	0x3d24f1c8	0.040269643
8	0x3daa4c63	0.08315351
9	0xbdb6f63f	-0.089336865
