Lectures/Lecture 10/lenet5_mnist.pth (torch, 181310 bytes, 10 tensors)

conv1.weight f4 [6, 1, 5, 5]
-0.03631016 0.11409654 -0.06974333 -0.23110528 -0.16909197 -0.017639749 0.1922638 0.17618705
-0.2154864 -0.4505612 -0.22936447 0.15707283 0.24198684 -0.38028064 -0.44180933 -0.23773
0.11389478 0.082547314 0.4797592 0.25957206 0.049730707 0.07116814 0.2570992 0.35358384
0.40729982 0.14110592 -0.027261589 0.17767814 0.11502592 0.16259685 0.1376172 0.12236684
-0.08193631 0.13814455 -0.27274802 0.07637475 -0.00025741197 0.122862056 -0.25757012 -0.18323211
0.104001164 -0.069821574 -0.307881 -0.12613603 -0.05728671 -0.24035375 -0.20066057 -0.084757894
0.04248801 0.17556559 0.2896358 0.17077343 0.099413775 0.17604433 0.10802689 -0.16084756
0.12891309 0.08728693 0.019944029 -0.02279978 -0.18301465 -0.17903855 -0.2551059 -0.16897225
-0.2617663 -0.18988723 -0.19487159 -0.06953416 -0.15293379 0.020031493 0.11792516 -0.054516662
-0.07220247 0.01261905 -0.051419556 0.14853056 -0.06255646 -0.13759367 -0.23066539 -0.14598441
-0.18020329 -0.26779902 -0.2742901 -0.16101032 0.3283908 -0.13332088 -0.33399358 -0.23767602
0.26711065 0.2891378 -0.22041008 -0.11245595 0.31195137 0.46021166 0.26581848 0.091752596
0.18693748 0.15391244 0.17179291 -0.084386505 0.25540575 0.25161746 0.02707316 -0.14711927
-0.06933461 0.07179323 0.40964186 0.3770391 0.21245202 -0.20163256 -0.25103652 -0.047338303
0.4162157 0.25474262 0.15782988 -0.38443893 -0.38460746 -0.19069825 0.1485439 0.060123455
-0.09103847 -0.24463421 -0.18289387 -0.16769785 0.086545385 0.22949499 0.19769083 -0.045516513
0.07625922 -0.022383757 0.1160908 0.17316882 0.16011684 -0.29633367 -0.19062373 0.11762938
0.45580786 -0.043252777 -0.2863972 -0.26317275 0.27291435 0.066977 -0.117320396 -0.20308661
-0.15469138 0.20692542 0.031096553 -0.041806333 -0.15255807 -0.03060184
00000000: f6b9 14bd 72ab e93d 97d5 8ebd dda6 6cbe
00000010: 7226 2dbe 3c81 90bc cde0 443e 616a 343e
00000020: 78a8 5cbe f5af e6be 85de 6abe b3d7 203e
00000030: 66cb 773e 25b4 c2be d534 e2be 7e6f 73be
00000040: ab41 e93d 910e a93d ffa2 f53e a1e6 843e
00000050: 6db2 4b3d 9ac0 913d 82a2 833e f108 b53e
00000060: 9a89 d03e 127e 103e b253 dfbc 42f1 353e
00000070: b692 eb3d ca7f 263e 86eb 0c3e 779b fa3d
00000080: 39ce a7bd c475 0d3e a1a5 8bbe 5d6a 9c3d
00000090: 40f5 86b9 1a9f fb3d 3be0 83be 33a1 3bbe
000000a0: 90fe d43d 9dfe 8ebd 94a2 9dbe ce29 01be
000000b0: 78a5 6abd 4b1f 76be f779 4dbe 8c95 adbd
000000c0: e807 2e3d 77c7 333e 254b 943e 3bdf 2e3e
000000d0: 7399 cb3d f744 343e 343d dd3d 39b5 24be
000000e0: cb01 043e 7dc3 b23d a961 a33c 9bc6 babc
000000f0: 3168 3bbe e255 37be 3e9d 82be 1007 2dbe
00000100: 3c06 86be cc71 42be 6b8c 47be ed67 8ebd
00000110: ad9a 1cbe 1619 a43c bf82 f13d dd4c 5fbd
00000120: e3de 93bd 22c0 4e3c 509d 52bd 6518 183e
00000130: 9a1d 80bd 5be5 0cbe 8c33 6cbe f07c 15be
00000140: 3687 38be f41c 89be c16f 8cbe e4df 24be
00000150: d722 a83e 4585 08be 3501 abbe 5861 73be
00000160: bac2 883e df09 943e 2eb3 61be 4e4f e6bd
00000170: 17b8 9f3e dda0 eb3e 5c19 883e c9e8 bb3d
00000180: 8a6c 3f3e 399b 1d3e 7bea 2f3e d5d2 acbd
00000190: 8bc4 823e 01d4 803e 88c8 dd3c 6fa6 16be
000001a0: 4eff 8dbd 5408 933d 94bc d13e 450b c13e
000001b0: 068d 593e c478 4ebe dc87 80be cfe5 41bd
000001c0: 391a d53e a06d 823e 289e 213e 2ed5 c4be
000001d0: 45eb c4be 6746 43be e41b 183e 0344 763d
000001e0: 6172 babd 6481 7abe 8848 3bbe fcb8 2bbe
000001f0: b53e b13d bc00 6b3e 776f 4a3e 866f 3abd
00000200: cb2d 9c3d 245e b7bc 03c1 ed3d 2b53 313e
00000210: abf5 233e 0cb9 97be de32 43be ace7 f03d
00000220: a65f e93e d329 31bd a7a2 92be 94be 86be
00000230: 6ebb 8b3e 3d2b 893d ad45 f0bd f0f5 4fbe
00000240: 6b67 1ebe 42e4 533e 33be fe3c 1e3d 2bbd
00000250: 2f38 1cbe b6b0 fabc

conv1.bias f4 [6]
0.17902735 -0.30435643 -0.42067134 -0.09711 0.049638007 -0.078681946
00000000: f252 373e 9bd4 9bbe 3c62 d7be 9ce1 c6bd
00000010: 3951 4b3d 0024 a1bd

conv2.weight f4 [16, 6, 5, 5]
-0.17878188 -0.09968192 -0.039274763 -0.013872458 0.15720712 -0.17224005 -0.057206318 0.08490626
-0.09816865 0.06790188 -0.1120326 -0.035618257 0.10601549 -0.03176438 -0.11842605 0.03723518
-0.09600199 0.11079354 0.052748542 -0.08438329 -0.006733145 0.11413647 0.10410399 0.1320161
0.08574532 0.070280924 -0.067325935 -0.034939207 0.015081589 -0.022535784 0.023370113 0.016388325
0.07318513 0.009295281 -0.03618758 -0.013597024 -0.003045325 0.09580493 0.12987128 -0.006393496
0.060747396 -0.06467139 0.13742703 -0.03983159 -0.115620814 -0.042771384 -0.032374397 -0.064284734
-0.0485551 0.015391547 0.066755064 0.08631067 -0.11025023 -0.07370849 -0.014250749 0.034326784
-0.04710651 0.02176133 0.031097004 -0.028260555 -0.037926804 -0.18321636 -0.012719657 0.09048701
0.08173827 -0.076482035 -0.13302928 -0.1230599 -0.0829513 -0.08765922 -0.10406825 -0.033249665
0.035341255 -0.055422924 -0.120773435 -0.29917836 -0.23951095 -0.06725106 0.026306292 0.045212306
-0.23061493 0.08937825 -0.10446474 -0.08582329 0.064872146 -0.008020806 0.14886816 -0.0013524448
-0.08536131 -0.05777471 0.052284997 0.124362975 -0.012447058 -0.08015752 -0.06003661 0.076720804
0.0912131 0.009311528 0.11585903 0.062907994 -0.085801035 -0.044480644 -0.024273753 0.08895301
0.06679533 -0.23946872 -0.1607973 -0.13625617 -0.064951874 0.17646813 -0.15121736 -0.33484128
-0.40704632 -0.21607196 0.16049296 -0.22033001 -0.29181808 -0.24556622 0.03140638 -0.25980246
-0.27030972 -0.34426516 -0.07093739 0.017746007 0.04354221 -0.08673695 -0.25662497 0.012146807
0.19344634 0.11259876 0.0017823089 -0.0050028674 0.2051774 0.16560121 -0.04765685 0.24023649
0.018806422 0.19725238 -0.029892953 0.005231192 0.24503581 0.059873194 0.16540746 -0.09511489
-0.04676458 0.14617135 0.18826628 0.027704462 -0.1244305 -0.04597945 -0.121938035 -0.022222828
-0.15237924 -0.33026853 -0.21984112 -0.1392285 -0.0057011275 0.045211602 -0.16198201 -0.23098962
-0.26015288 -0.21968569 -0.13859203 -0.21972127 0.01982426 -0.22361048 -0.03612394 -0.01771833
-0.14457054 0.03814469 0.004294067 0.02569341 0.12935507 -0.03993868 0.05081708 0.084987774
-0.14903569 -0.10024553 0.06957985 -0.050093587 -0.0880126 -0.12636213 0.12495457 0.00033292008
0.083242536 0.17170975 0.028022137 0.15835279 0.13058098 -0.031509798 -0.034608524 0.09912689
0.05665057 -0.09898278 0.01727874 -0.018932292 -0.060656738 -0.006015406 -0.16677332 -0.019985702
-0.0012077678 -0.068672426 -0.076319985 -0.04423171 0.008099155 0.010261067 -0.016477872 -0.056693986
0.06471597 -0.053269204 0.0704733 0.012901953 0.110967316 0.02944392 0.053188123 0.10033593
0.06405057 -0.06412343 0.046326373 -0.10435063 -0.042987853 0.064603336 0.04838297 -0.11321609
-0.091934755 0.09684929 0.25213036 -0.040219624 -0.32715148 0.03222109 0.14472505 0.15788087
-0.19638152 -0.089892864 0.14166391 0.08911661 0.043321572 -0.19037685 0.081176884 0.038024113
0.056863178 0.0031515327 -0.120407104 0.106400765 0.122770205 -0.08830473 0.091734216 0.08340017
0.08543925 -0.023991259 -0.11701945 -0.11079675 -0.26524672 -0.25359726 -0.13517821 -0.17878152
00000000: 9912 37be 0926 ccbd 93de 20bd 4e49 63bc
00000010: e7fa 203e b25f 30be 2c51 6abd 55e3 ad3d
00000020: a50c c9bd 2410 8b3d 5971 e5bd 73e4 11bd
00000030: a61e d93d 5e1b 02bd 5b89 f2bd eb83 183d
00000040: b19c c4bd b9e7 e23d db0e 583d 25d1 acbd
00000050: b7a1 dcbb 62c0 e93d 7934 d53d 3b2f 073e
00000060: 3e9b af3d 72ef 8f3d 2ee2 89bd 6a1c 0fbd
00000070: c518 773c f79c b8bc ae72 bf3c cf40 863c
00000080: 16e2 953d 3c4b 183c 6e39 14bd 0dc6 5ebc
00000090: 1394 47bb 6035 c43d fafc 043e 8880 d1bb
000000a0: 43d2 783d 6f72 84bd acb9 0c3e 7326 23bd
000000b0: 9bca ecbd 0c31 2fbd 049b 04bd b7a7 83bd
000000c0: b6e1 46bd d42c 7c3c e1b6 883d a6c3 b03d
000000d0: dfca e1bd 7af4 96bd f97b 69bc 3e9a 0c3d
000000e0: c1f2 40bd d144 b23c 25bf fe3c ae82 e7bc
000000f0: 2359 1bbd 129d 3bbe 1c66 50bc 4151 b93d
00000100: 6566 a73d 9da2 9cbd d438 08be d406 fcbd
00000110: 5fe2 a9bd ad86 b3bd bc21 d5bd cd30 08bd
00000120: fec1 103d 2603 63bd 1058 f7bd e82d 99be
00000130: 5c42 75be ecba 89bd 4b80 d73c 8a30 393d
00000140: 5226 6cbe f20b b73d 9cf1 d5bd 1fc4 afbd
00000150: b0db 843d b369 03bc e570 183e 8444 b1ba
00000160: e9d1 aebd 2da5 6cbd cb28 563d 04b2 fe3d
00000170: bfee 4bbc a029 a4bd f3e8 75bd cc1f 9d3d
00000180: efcd ba3d 618f 183c 8047 ed3d e8d5 803d
00000190: 74b8 afbd 5631 36bd c0d9 c6bc ff2c b63d
000001a0: fdcb 883d 4a37 75be 0ca8 24be bd86 0bbe
000001b0: 7d05 85bd 10b4 343e b9d8 1abe 5170 abbe
000001c0: 6068 d0be f841 5dbe 4458 243e 319e 61be
000001d0: 2e69 95be b675 7bbe faa3 003d d404 85be
000001e0: 0966 8abe 8643 b0be 9f47 91bd 1360 913c
000001f0: 5159 323d 24a3 b1bd 5964 83be 6703 473c
00000200: cc16 463e 2e9a e63d 5d9c e93a 18ef a3bb
00000210: 061a 523e 5d93 293e d433 43bd 8e00 763e
00000220: ed0f 9a3c 87fc 493e 11e2 f4bc 6b6a ab3b
00000230: abea 7a3e 983d 753d 9360 293e 98cb c2bd
00000240: 378c 3fbd f1ad 153e e0c8 403e 78f4 e23c
00000250: 6bd5 febd f354 3cbd a6ba f9bd a60c b6bc
00000260: 4e09 1cbe f518 a9be 081e 61be ea91 0ebe
00000270: 86d0 babb cd2f 393d 9dde 25be 8b88 6cbe
00000280: c232 85be 49f5 60be 12eb 0dbe 9dfe 60be
00000290: 7d66 a23c 25fa 64be b2f6 13bd 0826 91bc
000002a0: 4d0a 14be 9b3d 1c3d 3fb5 8c3b fc7a d23c
000002b0: a875 043e be96 23bd 9225 503d 120e ae3d
000002c0: d09c 18be 874d cdbd e17f 8e3d ef2e 4dbd
000002d0: f33f b4bd 1365 01be 2ee8 ff3d c78b ae39
000002e0: 107b aa3d aed4 2f3e ae8e e53c 3c27 223e
000002f0: 05b7 053e 6b10 01bd abc1 0dbd 0a03 cb3d
00000300: 6e0a 683d 7cb7 cabd 258c 8d3c e517 9bbc
00000310: 3373 78bd e21c c5bb a0c6 2abe 0eb9 a3bc
00000320: f64d 9eba 21a4 8cbd a74d 9cbd 4f2c 35bd
00000330: 51b2 043c 091e 283c 9afc 86bc f437 68bd
00000340: ce89 843d cf30 5abd 4e54 903d b762 533c
00000350: d542 e33d 6034 f13c cadb 593d ed7c cd3d
00000360: f22c 833d 2553 83bd b9c0 3d3d c8b5 d5bd
00000370: 0814 30bd c14e 843d 392d 463d d6dd e7bd
00000380: 4a48 bcbd ec58 c63d 3b17 813e 55bd 24bd
00000390: 6680 a7be 43fa 033d ce32 143e 86ab 213e
000003a0: 3d18 49be c019 b8bd 5810 113e c582 b63d
000003b0: f671 313d 26f2 42be 1140 a63d 2cbf 1b3d
000003c0: 5de9 683d f289 4e3b 0098 f6bd a5e8 d93d
000003d0: f26e fb3d 1cd9 b4bd 26df bb3d b5cd aa3d
000003e0: c6fa ae3d 5189 c4bc e5a7 efbd 68e9 e2bd
000003f0: 6bce 87be 80d7 81be 286c 0abe 8112 37be

conv2.bias f4 [16]
0.023848996 0.13662082 0.020666378 0.067582354 -0.04667474 -0.0009364383 0.07418336 -0.07022134
-0.023665 -0.025574278 -0.027671717 -0.05478083 0.014798474 -0.031922318 -0.07187407 -0.0468497
00000000: f85e c33c 54e6 0b3e 894c a93c 9e68 8a3d
00000010: 032e 3fbd 4f7b 75ba 72ed 973d 35d0 8fbd
00000020: 1add c1bc 2681 d1bc ccaf e2bc dd61 60bd
00000030: 4c75 723c fac0 02bd b632 93bd 79e5 3fbd

fc1.weight f4 [120, 256]
-0.03159431 0.020085625 -0.1316051 -0.040619932 0.090939395 -0.0073375455 -0.010010375 0.04800277
0.16152823 -0.019943891 0.028648052 0.060506206 0.09093755 -0.039090496 -0.009321872 -0.0046496736
0.15529618 -0.042494237 -0.06250331 -0.09960524 0.015466024 0.0132905515 -0.0582639 0.02267829
0.015710065 0.14688666 0.102162406 0.13576561 0.09210286 0.028184218 0.028608127 0.09211008
0.09971148 -0.004987184 0.005238021 -0.107782796 -0.043621164 -0.14357272 0.1542136 0.08082129
-0.07973569 -0.119486146 -0.08176957 -0.064826794 -0.06851888 -0.15400514 0.08720038 0.050471526
0.09092309 0.06939564 -0.1334087 0.048420135 0.04784198 0.048609372 0.01738935 0.00049779343
0.015843727 -0.006746346 -0.022559563 -0.07693387 -0.02491575 0.057740983 -0.105627775 0.055709355
0.04244043 0.27906892 0.11493164 0.010989897 -0.17362075 -0.0654851 -0.12337126 -0.16655692
0.023825657 -0.04082476 0.03597828 -0.07866712 -0.11793112 0.0021773952 -0.084850125 -0.0009370994
-0.37140793 -0.06452237 0.12406462 0.037874795 0.023213241 0.009055887 -0.11139119 -0.03876308
0.020241173 -0.1148641 -0.1039282 -0.23663433 0.029985636 0.06592407 0.06455418 -0.15593666
-0.006624184 -0.09386092 0.044576164 0.1013078 -0.11577154 -0.14725964 -0.050222356 -0.22673841
-0.05174522 -0.11310335 0.086642295 -0.048552945 0.029564178 0.084715 0.0634809 0.008737772
-0.10214197 0.05696384 0.15732616 0.1870338 0.022851683 -0.046141125 -0.16310517 -0.05504914
-0.00087712315 -0.009808177 -0.10189401 -0.032031965 -0.06666549 -0.058810677 -0.06332993 -0.15681367
-0.22202581 0.073853396 0.047752067 -0.017383097 -0.29183942 -0.04342886 -0.10707293 -0.0124862455
-0.0053600334 0.033745814 -0.15042742 0.0479759 0.034085523 -0.08098866 -0.06466174 -0.13249075
0.11902439 -0.062000085 -0.03285598 0.1265663 -0.03922208 0.1402871 0.14343522 0.037669566
0.010452907 -0.007672593 -0.05531433 0.056119103 -0.10172121 0.022856846 0.03801647 0.1198032
-0.10326707 -0.012714835 -0.0039269207 0.08702961 0.19901355 0.025031846 0.08258219 0.08209464
-0.011562826 0.021562515 0.078210354 -0.10006356 0.17931356 0.074364856 -0.128124 -0.15581913
0.077892736 -0.019356294 -0.18609628 -0.23811623 -0.018058984 0.03954077 -0.13933691 -0.100364104
0.045907564 0.039892983 -0.09919782 -0.048661143 0.089192204 -0.0005111796 0.14066958 0.08691638
-0.21235812 -0.040104963 -0.07800156 0.13541083 -0.014451895 -0.010465221 -0.06766141 0.030731237
-0.055770915 -0.025415666 -0.12613851 0.0015411975 -0.050974086 -0.03216951 -0.13664632 -0.01653288
-0.30066884 -0.13095388 0.05505454 -0.095165946 -0.13390876 -0.26429713 -0.093093745 -0.065622196
-0.060987767 -0.12700176 -0.18523642 0.048034042 0.018080192 0.062133834 -0.08921198 -0.1533598
-0.043157924 -0.10113976 -0.03572867 -0.027326027 0.06660461 -0.011789683 -0.090102 0.0626302
-0.011381402 -0.032504514 -0.057838976 0.11936753 -0.017265249 0.06220255 0.08914157 0.033847705
-0.14449786 -0.03369962 -0.016144896 0.02282525 -0.067174956 0.08033997 0.11213586 0.081998855
0.03300787 0.057999186 -0.042934287 0.033189684 -0.1234734 0.0036817323 0.035817944 0.08530791
00000000: 0969 01bd 9c8a a43c 7dc3 06be 1661 26bd
00000010: 6f3e ba3d cb6f f0bb 8e02 24bc 8d9e 443d
00000020: a867 253e 5f61 a3bc 52af ea3c 5bd5 773d
00000030: 773d ba3d 5b1d 20bd c4ba 18bc 4a5c 98bb
00000040: f605 1f3e 700e 2ebd bc01 80bd d5fd cbbd
00000050: 3565 7d3c 9dc0 593c 21a6 6ebd d2c7 b93c
00000060: 65b2 803c 7569 163e 863a d13d 2406 0b3e
00000070: 6da0 bc3d 97e2 e63c 975b ea3c 36a4 bc3d
00000080: 8835 cc3d 886b a3bb b4a3 ab3b 3abd dcbd
00000090: 1bac 32bd ba04 13be 2cea 1d3e a285 a53d
000000a0: 774c a3bd 27b5 f4bd ce76 a7bd e9c3 84bd
000000b0: a053 8cbd 86b3 1dbe 1d96 b23d 3bbb 4e3d
000000c0: e335 ba3d 4d1f 8e3d 4a9c 08be 3154 463d
000000d0: f4f5 433d 9f1a 473d 1c74 8e3c 5a7e 023a
000000e0: b4ca 813c 7410 ddbb d5ce b8bc 818f 9dbd
000000f0: 1d1c ccbc cf81 6c3d 6053 d8bd 7e2f 643d
00000100: 04d6 2d3d 1fe2 8e3e 4861 eb3d f80e 343c
00000110: a3c9 31be 0d1d 86bd 12aa fcbd e68d 2abe
00000120: 062e c33c dd37 27bd f65d 133d 3a1c a1bd
00000130: df85 f1bd a1b2 0e3b e7c5 adbd ada7 75ba
00000140: 2e29 bebe 4e24 84bd 9715 fe3d 9a22 1b3d
00000150: b229 be3c 255f 143c 1021 e4bd 09c6 1ebd
00000160: d1d0 a53c df3d ebbd 4fd8 d4bd 4550 72be
00000170: 70a4 f53c 3303 873d fb34 843d dcad 1fbe
00000180: af0f d9bb 273a c0bd 7f95 363d 777a cf3d
00000190: a119 edbd 3bcb 16be f5b5 4dbd 1d2e 68be
000001a0: ccf2 53bd bba2 e7bd 8471 b13d 74df 46bd
000001b0: 9330 f23c 0f7f ad3d 4602 823d df28 0f3c
000001c0: cf2f d1bd ea52 693d 1c1a 213e ca85 3f3e
000001d0: 7433 bb3c 7afe 3cbd 0b05 27be 357b 61bd
000001e0: bdee 65ba 7ab2 20bc cfad d0bd f333 03bd
000001f0: eb87 88bd 77e3 70bd 1fb3 81bd c393 20be
00000200: bc5a 63be 7340 973d ac97 433d ff66 8ebc
00000210: fa6b 95be 76e2 31bd 0d49 dbbd 1c93 4cbc
00000220: 38a3 afbb 0d39 0a3d a509 1abe 6182 443d
00000230: 439d 0b3d 62dd a5bd 606d 84bd a8ab 07be
00000240: 0fc3 f33d cdf3 7dbd fe93 06bd 999a 013e
00000250: 55a7 20bd 6ca7 0f3e afe0 123e 674b 1a3d
00000260: ab42 2b3c 606a fbbb 4791 62bd 25dd 653d
00000270: 3653 d0bd 483e bb3c 28b7 1b3d 615b f53d
00000280: b07d d3bd e251 50bc 66ad 80bb 953c b23d
00000290: 35ca 4b3e 960f cd3c da20 a93d 3c21 a83d
000002a0: 0272 3dbc dfa3 b03c c02c a03d 20ee ccbd
000002b0: f99d 373e 9a4c 983d f032 03be 0d8f 1fbe
000002c0: 3a86 9f3d 1791 9ebc 0690 3ebe bed4 73be
000002d0: 6ff0 93bc 81f5 213d 56ae 0ebe b28b cdbd
000002e0: 9209 3c3d d366 233d 3a28 cbbd e850 47bd
000002f0: 67aa b63d af00 06ba b00b 103e 3701 b23d
00000300: 6874 59be 1a45 24bd 48bf 9fbd 23a9 0a3e
00000310: a4c7 6cbc 5176 2bbc 1192 8abd 13c0 fb3c
00000320: 0b70 64bd 8434 d0bc 742a 01be 0202 ca3a
00000330: 34ca 50bd 2dc4 03bd 03ed 0bbe f66f 87bc
00000340: 44f1 99be c618 06be df80 613d 5de6 c2bd
00000350: 611f 09be f451 87be efa7 bebd ee64 86bd
00000360: 4fce 79bd c00c 02be 9eae 3dbe 58bf 443d
00000370: e91c 943c 0c80 7e3d c5b4 b6bd 5a0a 1dbe
00000380: 5dc6 30bd 5d22 cfbd 3a58 12bd d5da dfbc
00000390: ff67 883d 8429 41bc 6687 b8bd 4344 803d
000003a0: 0f79 3abc 7423 05bd 90e8 6cbd f776 f43d
000003b0: da6f 8dbc 1ac8 7e3d db8f b63d e4a3 0a3d
000003c0: 3ff7 13be 9d08 0abd 4d42 84bc 05fc ba3c
000003d0: 0693 89bd 4889 a43d 7ca7 e53d 04ef a73d
000003e0: 4333 073d 8e90 6d3d dddb 2fbd e8f1 073d
000003f0: 9fdf fcbd 3849 713b d6b5 123d eab5 ae3d

fc1.bias f4 [120]
0.123395465 -0.043954488 0.063746445 -0.053817578 -0.040638298 -0.00061609235 0.07198578 -0.050371468
-0.030166732 -0.053366248 0.029903341 0.013345435 0.045355655 -0.049876034 0.025540825 -0.007785115
-0.043725137 0.06587831 -0.055231635 -0.06518733 -0.0762657 0.015792968 -0.04492304 -0.079689965
0.12428239 0.052557603 0.07870828 0.061591983 -0.03852157 0.02060349 -0.06579279 -0.10368043
0.060361885 0.08931999 0.09218464 0.09738007 -0.022754757 -0.019359728 -0.079109356 -0.07868479
-0.08800339 -0.0669687 0.03984896 0.030252362 0.040958088 0.015489767 -0.0058790287 -0.018322328
-0.10287341 -0.020133564 -0.028662238 0.09634607 -0.06883776 -0.053151716 0.035956893 -0.060313843
-0.10684984 0.09690874 -0.007909475 -0.015091198 0.03052459 -0.10265758 0.09472581 -0.065499865
0.06669909 -0.016457066 -0.018974971 0.06251648 0.040205557 -0.0040248963 -0.016973257 -0.09537385
-0.043798495 -0.033569127 0.11256376 0.08041978 -0.1360494 -0.013647542 0.062220264 0.058929373
0.04426957 -0.0066229114 -0.08118284 0.04505174 -0.078339666 0.10100742 0.03525029 -0.01092374
0.00935454 -0.014166124 0.08001806 -0.008148998 -0.017838739 0.020647235 -0.057059787 0.053156067
-0.028436663 0.038291693 0.040607993 0.052384287 -0.020107755 -0.0089569045 -0.0477016 -0.0797157
-0.009129975 -0.012148025 0.021776399 0.034402464 0.10397522 0.037201334 0.057501543 -0.03234461
-0.016597705 -0.07142219 -0.054149806 0.040438022 0.0454149 0.06645733 -0.07698914 0.006459954
00000000: c3b6 fc3d 9f09 34bd 7f8d 823d d26f 5cbd
00000010: 5874 26bd 4281 21ba 486d 933d 5052 4ebd
00000020: 3920 f7bc 9196 5abd daf7 f43c d0a6 5a3c
00000030: dac6 393d d04a 4cbd fe3a d13c 471a ffbb
00000040: 2119 33bd 35eb 863d 913a 62bd ef80 85bd
00000050: 3131 9cbd 4160 813c 3901 38bd 7e34 a3bd
00000060: c487 fe3d a446 573d cf31 a13d e047 7c3d
00000070: cbc8 1dbd a6c8 a83c 5fbe 86bd 6856 d4bd
00000080: 063e 773d 66ed b63d 4dcb bc3d 346f c73d
00000090: 2f68 babc 4b98 9ebc 1604 a2bd 7e25 a1bd
000000a0: 1f3b b4bd e326 89bd aa38 233d cdd3 f73c
000000b0: abc3 273d cbc8 7d3c dea4 c0bb b518 96bc
000000c0: 4baf d2bd 25ef a4bc 12cd eabc 1751 c53d
000000d0: d0fa 8cbd 9db5 59bd 8947 133d a60b 77bd
000000e0: 17d4 dabd 1778 c63d be96 01bc 1241 77bc
000000f0: b40e fa3c 233e d2bd 9bff c13d cb24 86bd
00000100: 8899 883d f8d0 86bc 6671 9bbc a408 803d
00000110: 95ae 243d 47e3 83bb 800b 8bbc 5d53 c3bd
00000120: 0d66 33bd c87f 09bd d487 e63d 20b3 a43d
00000130: 8950 0bbe f199 5fbc adda 7e3d ed5f 713d
00000140: 0254 353d 0205 d9bb 3043 a6bd 2c88 383d
00000150: 8c70 a0bd fadc ce3d 9c62 103d 7df9 32bc
00000160: c943 193c 0819 68bc 82e0 a33d 6083 05bc
00000170: 8c22 92bc 6424 a93c 86b7 69bd 2dba 593d
00000180: 01f4 e8bc c0d7 1c3d 9154 263d e890 563d
00000190: 05b9 a4bc fbbf 12bc c162 43bd fc41 a3bd
000001a0: e495 15bc 8308 47bc 6b64 b23c 99e9 0c3d
000001b0: f6f0 d43d 6d60 183d bd86 6b3d c87b 04bd
000001c0: e9f7 87bc cc45 92bd 30cc 5dbd 57a2 253d
000001d0: f904 3a3d c81a 883d 7bac 9dbd 06ae d33b

fc2.weight f4 [84, 120]
-0.1422141 -0.1287203 0.12749104 -0.03614757 -0.18298678 -0.04164089 0.003973348 -0.14947622
0.07284813 -0.08199432 0.041872315 0.044953544 0.025356468 0.16238448 -0.038062103 0.14641592
-0.104456685 0.002173696 -0.07269831 0.0783934 -0.13218546 -0.022002768 0.09555799 -0.08807142
0.12865666 0.021754682 0.17815222 0.08866296 0.07755104 -0.043627486 0.1255671 0.10017325
-0.046885688 -0.13115557 -0.16290396 -0.13556293 0.054400753 -0.13368692 0.06915001 0.06331074
0.1549241 0.0098919235 0.07844543 -0.11520656 -0.11308486 -0.09376852 0.06754525 0.077201925
-0.035431333 -0.018535698 -0.17564471 -0.012168356 0.066322975 -0.11012283 0.15049052 0.050255224
0.0495889 0.02438928 -0.111494906 0.091374025 0.01744251 0.006179891 -0.06824097 0.0003401148
-0.11931979 -0.15807374 0.071770705 0.08262948 -0.09794159 -0.06967915 0.04969356 0.002407429
-0.0926684 -0.12549081 0.07102295 0.20599198 -0.046232577 -0.046021998 -0.017507855 0.030006938
0.05003952 0.0011543552 0.12467431 0.041302063 0.06585182 -0.12334464 -0.12897149 0.12194009
-0.0030242892 0.018743025 0.092898175 -0.057413153 0.004567422 0.21068162 0.14021875 -0.16960269
-0.048376627 -0.05883788 0.17589454 -0.24158865 0.0012104359 0.016583059 0.10414775 0.16971116
0.034951422 0.080265865 -0.009425109 -0.0069671758 0.08700743 0.16389698 0.07296195 0.0042408435
0.031961564 -0.09717113 0.089023836 -0.07799851 -0.02689953 0.0290259 0.07230024 -0.13037615
0.1430061 0.050286207 0.05440847 -0.08099942 0.11699202 0.04981875 0.07400519 0.09954324
0.10116585 -0.012923666 -0.043616254 -0.039027218 0.0118237715 -0.26265696 0.11029516 0.048375044
0.082299694 -0.06269384 0.09581784 -0.12503034 -0.12811734 0.13511398 -0.035151936 0.20702687
-0.016809786 -0.056222096 -0.09955456 0.0273256 0.09758975 0.20438425 -0.04901993 0.17746058
0.048236802 -0.025730079 0.22564076 0.002948804 -0.09622414 0.117245845 -0.039403014 0.024181318
-0.09059288 0.09954766 -0.04469979 0.0073485407 0.07779544 0.2147906 0.06208657 -0.12429386
-0.12074363 0.051621966 0.09358551 0.21259867 -0.19295777 0.13943605 -0.08902416 0.08346533
-0.3712806 -0.0010035291 0.044555318 -0.06915984 0.100957595 -0.08170591 -0.024320273 0.067777544
0.031060224 0.16378729 -0.10456053 -0.015962167 -0.14315748 -0.00030135358 -0.096738584 0.094400436
-0.020051103 0.012919402 -0.062997386 -0.051852398 -0.04079414 -0.03877176 0.01738798 0.0772807
0.060585786 -0.05602035 0.13423458 0.11748584 -0.17224844 0.030109227 0.06664045 -0.03893035
-0.07840431 -0.066264644 0.003713975 0.114680305 0.043088675 -0.13209689 -0.12107849 0.039065123
0.096546315 0.14224257 -0.32753736 0.25336063 -0.0020597598 -0.03948978 0.011973981 -0.006934966
0.06969988 -0.03189307 -0.030449873 0.0060271095 0.24794368 -0.027489636 0.030547021 0.067160636
0.06899614 -0.06683918 -0.16613953 -0.1195796 0.44878116 0.048620373 -0.055847082 0.17985724
0.026538843 -0.13760342 0.056008764 -0.032141153 0.018312199 -0.06733957 -0.04955581 0.019898018
0.043770272 -0.070178665 -0.08297643 0.0011881281 0.04450115 -0.037168726 0.018123643 0.019615773
00000000: 93a0 11be 41cf 03be 038d 023e 790f 14bd
00000010: e360 3bbe a38f 2abd dc32 823b 4b10 19be
00000020: 6631 953d a3ec a7bd 4e82 2b3d 3521 383d
00000030: 5eb8 cf3c 1e48 263e 02e7 1bbd 0eee 153e
00000040: 63ed d5bd 9174 0e3b dae2 94bd b88c a03d
00000050: a05b 07be 263f b4bc e8b3 c33d ca5e b4bd
00000060: 92be 033e e036 b23c 896d 363e ed94 b53d
00000070: 14d3 9e3d bcb2 32bd a994 003e a227 cd3d
00000080: 350b 40bd a54d 06be 4cd0 26be 02d1 0abe
00000090: 53d3 5e3d 39e5 08be 859e 8d3d 10a9 813d
000000a0: 6ca4 1e3e bc11 223c ffa7 a03d 6bf1 ebbd
000000b0: 0999 e7bd b609 c0bd 2a55 8a3d 0b1c 9e3d
000000c0: 7220 11bd 2dd8 97bc 35dc 33be c95d 47bc
000000d0: 57d4 873d 1488 e1bd 301a 1a3e 6cd8 4d3d
000000e0: bb1d 4b3d 07cc c73c 7157 e4bd 4e22 bb3d
000000f0: 98e3 8e3c af80 ca3b ecc1 8bbd 7051 b239
00000100: ef5d f4bd 15de 21be 85fc 923d a539 a93d
00000110: 9a95 c8bd f1b3 8ebd 798b 4b3d f5c5 1d3b
00000120: eec8 bdbd aa80 00be 7b74 913d 90ef 523e
00000130: 5f5e 3dbd 9081 3cbd a26c 8fbc 1cd1 f53c
00000140: 3df6 4c3d bc4d 973a 3f55 ff3d 5a2c 293d
00000150: 52dd 863d 1d9c fcbd 1a11 04be babb f93d
00000160: 2733 46bb f98a 993c 6641 be3d 0e2a 6bbd
00000170: 50aa 953b ecbc 573e 8195 0f3e 54ac 2dbe
00000180: 9226 46bd fdff 70bd b31d 343e 0463 77be
00000190: 7da7 9e3a 32d9 873c 6a4b d53d c3c8 2d3e
000001a0: 3929 0f3d 6e62 a43d c66b 1abc e84c e4bb
000001b0: f430 b23d 9cd4 273e 136d 953d c6f6 8a3b
000001c0: 21ea 023d a801 c7bd 2152 b63d afbd 9fbd
000001d0: 675c dcbc b9c7 ed3c 2612 943d 5381 05be
000001e0: 3170 123e e9f8 4d3d 6adb 5e3d 06e3 a5bd
000001f0: 8399 ef3d bf0e 4c3d 0890 973d 54dd cb3d
00000200: 0b30 cf3d c9bd 53bc f5a6 32bd 01db 1fbd
00000210: 7eb8 413c f97a 86be 6ee2 e13d e924 463d
00000220: be8c a83d a165 80bd 253c c43d f407 00be
00000230: 3131 03be 525b 0a3e 7afb 0fbd dafe 533e
00000240: adb4 89bc 2449 66bd 43e3 cbbd f0d9 df3c
00000250: 23dd c73d 1b4a 513e 1fc9 48bd 3ab8 353e
00000260: f493 453d e3c7 d2bc 5f0e 673e b940 413b
00000270: 2911 c5bd 971e f03d 0e65 21bd e617 c63c
00000280: c388 b9bd a5df cb3d 2117 37bd 07cc f03b
00000290: 3753 9f3d 11f2 5b3e 7d4e 7e3d c78d febd
000002a0: 7048 f7bd 8e71 533d c3a9 bf3d 77b3 593e
000002b0: b996 45be 53c8 0e3e 4c52 b6bd dfef aa3d
000002c0: 7e18 bebe d988 83ba a37f 363d ada3 8dbd
000002d0: dbc2 ce3d 6e55 a7bd 4f3b c7bc f4ce 8a3d
000002e0: 0372 fe3c dbb7 273e d523 d6bd 17c3 82bc
000002f0: e097 12be fefe 9db9 e11e c6bd 0455 c13d
00000300: 3642 a4bc e6ab 533c c604 81bd 2e63 54bd
00000310: c217 27bd 23cf 1ebd 3d71 8e3c 5845 9e3d
00000320: cd28 783d 9875 65bd ca74 093e 6b9c f03d
00000330: e561 30be a0a7 f63c ca7a 883d 6e75 1fbd
00000340: 7092 a0bd c2b5 87bd 2966 733b 82dd ea3d
00000350: c07d 303d 6844 07be 00f8 f7bd c002 203d
00000360: 13ba c53d 09a8 113e fab2 a7be 7cb8 813e
00000370: 09fd 06bb 09c0 21bd 842e 443c b63e e3bb
00000380: d0be 8e3d 4fa2 02bd 0372 f9bc 0f7f c53b
00000390: f3e4 7d3e f231 e1bc bf3d fa3c 848b 893d
000003a0: d94d 8d3d fbe2 88bd 7b20 2abe 26e6 f4bd
000003b0: a5c6 e53e 2826 473d e9bf 64bd 7f2c 383e
000003c0: fd67 d93c e9e7 0cbe 7269 653d 71a6 03bd
000003d0: 7703 963c 54e9 89bd 08fb 4abd 2b01 a33c
000003e0: 7548 333d d5b9 8fbd 8cef a9bd f7ba 9b3a
000003f0: d646 363d 3c3e 18bd 0978 943c 42b1 a03c

fc2.bias f4 [84]
0.1146395 0.023915563 -0.07186443 0.084011406 0.017309535 -0.046468202 0.111333914 0.12732583
0.109515965 0.04916833 -0.013068701 -0.06732879 0.06331829 0.06436155 0.09204311 -0.0710499
0.05547415 0.057434164 0.01742172 0.015675994 0.12718248 -0.05660267 0.004563656 -0.072742395
-0.022092752 -0.09221882 0.045607924 0.052034512 0.056608506 0.057316545 0.07660718 0.09741126
-0.054395758 0.055556074 -0.065714 -0.06404353 -0.008250464 0.12300791 0.022606388 0.033557296
0.01584304 -0.06528514 -0.036354247 0.09885641 0.043366425 0.16605741 0.009345968 0.042924814
0.056211755 0.12603265 -0.06482327 -0.07111975 0.124244235 -0.13006584 -0.04503451 -0.08950558
0.05075605 -0.045245625 -0.026443943 -0.12932727 -0.009956599 0.06127129 0.10954839 0.12989578
-0.13429032 0.11914721 0.12860224 0.13038059 0.011932371 0.12239013 -0.0289449 -0.05903735
-0.027298937 -0.0971242 0.05714588 -0.097730495 0.0128432615 0.08838193 -0.04232051 -0.11200611
-0.049611866 -0.01689582 0.10426482 -0.03382715
00000000: 1dc8 ea3d 92ea c33c a92d 93bd 2c0e ac3d
00000010: bacc 8d3c 7155 3ebd 0903 e43d b461 023e
00000020: e849 e03d bb64 493d 1b1e 56bc ade3 89bd
00000030: 05ad 813d fdcf 833d 1981 bc3d 9c82 91bd
00000040: dd38 633d 1640 6b3d ffb7 8e3c f16a 803c
00000050: 203c 023e 34d8 67bd b98a 953b f7f9 94bd
00000060: dcfb b4bc 38dd bcbd 60cf 3a3d 2422 553d
00000070: 52de 673d c1c4 6a3d 3ae4 9c3d 8e7f c73d
00000080: 16ce 5ebd c48e 633d 1095 86bd 4129 83bd
00000090: f42c 07bc 92eb fb3d 0831 b93c 6073 093d
000000a0: 43c9 813c 37b4 85bd 31e8 14bd 3b75 ca3d
000000b0: fea0 313d f40a 2a3e d51f 193c eed1 2f3d
000000c0: 4c3e 663d b40e 013e 10c2 84bd 3ba7 91bd
000000d0: c373 fe3d fb2f 05be 1b76 38bd b44e b7bd
000000e0: 93e5 4f3d 7a53 39bd f8a0 d8bc 5e6e 04be
000000f0: 0121 23bc 9bf7 7a3d e85a e03d 6603 053e
00000100: 6783 09be 7403 f43d 4eb0 033e 7d82 053e
00000110: fe7f 433c ada7 fa3d db1d edbc 26d1 71bd
00000120: 05a2 dfbc 0de9 c6bd cc11 6a3d ed26 c8bd
00000130: 8b6c 523c 9601 b53d 4558 2dbd 7663 e5bd
00000140: d035 4bbd 1a69 8abc cb88 d53d 568e 0abd

fc3.weight f4 [10, 84]
-0.15263492 0.10579395 -0.0105155045 -0.06668169 0.10891387 -0.16011508 -0.22272034 0.10643667
-0.21186572 0.015095275 -0.029810205 -0.13312794 0.090115376 0.12811968 0.15088326 0.086558364
-0.12624416 -0.026845664 -0.044493902 0.058219574 -0.12215722 -0.26185855 -0.07045022 -0.04902768
0.16177255 -0.18607496 0.056606 -0.22655737 0.09331945 0.11899226 -0.15222146 -0.252446
-0.04165122 -0.30681902 -0.08438528 0.023305787 0.04893891 -0.07665594 -0.349274 -0.010191321
0.077504046 -0.0980938 0.16008228 -0.014463093 0.090681694 -0.10194523 0.14855057 0.07584514
-0.027856372 -0.00029788612 0.031834915 -0.03299529 0.058415025 0.018637693 -0.19650654 -0.12841891
0.037432842 -0.27076733 0.03062337 -0.19716084 -0.14979087 -0.09336433 0.16810873 -0.14242764
0.0154179055 0.12964298 -0.22360106 -0.19669601 -0.15250213 0.18331388 0.038887467 -0.17336865
0.09614761 0.092553146 -0.1750876 -0.062853634 -0.23344131 -0.09755148 -0.24193142 -0.0319799
-0.13921256 -0.08847403 0.1534249 0.15597458 -0.19004071 0.12614083 0.06715232 -0.15132931
-0.3437681 -0.08291177 -0.19288674 -0.026222069 -0.06653645 0.030444222 -0.07500092 0.1648092
0.048687924 0.18762605 -0.0003045753 0.10841233 -0.025425678 0.1608583 0.08276424 -0.057033077
-0.018321551 0.0070699085 0.104982376 -0.26922897 0.1815491 0.011795402 -0.16484521 -0.20836462
0.040368147 -0.17107828 -0.09798424 0.11276389 -0.080624245 0.046113703 -0.025043963 -0.010203575
-0.19094025 0.051946636 0.13345224 -0.0025537931 -0.19117977 0.08775158 -0.30709752 0.06437377
0.06879509 0.14165662 -0.20564157 -0.21660669 0.14991826 0.08714611 -0.26061365 -0.075233795
0.14608702 0.027314987 -0.097045906 -0.21747608 -0.096412 0.06639368 -0.22563614 -0.06925233
0.22785985 0.13909969 -0.18988281 -0.034875378 -0.021030113 0.050518557 -0.21893802 -0.105481125
-0.16845371 -0.33818093 0.028057251 -0.15695839 -0.22425936 -0.1959036 0.111249365 -0.10176032
-0.13617264 -0.07831405 0.11737446 -0.14617574 -0.056559112 0.0072761993 -0.1708119 -0.07387787
0.12640648 0.057157725 -0.07004498 0.15457636 -0.24824074 0.11797987 0.11140194 -0.030210396
0.019437697 0.06932431 -0.096585885 0.004626722 -0.29583088 0.10587913 0.057426754 0.20923373
-0.08557735 0.07087085 -0.084848896 -0.14986457 -0.30957878 0.023848245 -0.012216888 -0.07672375
0.003687774 -0.16812433 0.06477317 0.17222561 0.084925115 -0.09422804 -0.20343287 0.07749836
-0.05024396 -0.15361711 0.08277523 -0.13370042 -0.18977107 0.15400939 -0.3257243 -0.034317855
0.002035432 0.023185313 -0.23083104 -0.3289476 -0.13195895 -0.07711788 0.03352897 0.13736033
-0.09711008 0.161696 -0.19798489 0.025435694 -0.23226608 0.011606818 -0.05692996 0.08610351
0.108943954 0.0038791094 0.036351014 -0.17253882 -0.034850847 0.0902411 0.066842794 0.18496221
0.105621986 0.0022096185 0.11385236 -0.2510547 -0.09307286 0.17849632 0.093647785 -0.059661146
-0.058328174 0.03240696 0.12027236 -0.07415244 -0.00064916845 -0.00377334 -0.24061848 -0.18874876
-0.02958614 -0.115189 0.04708254 0.07120619 0.12423019 -0.3443614 -0.018283019 0.17103505
00000000: 544c 1cbe 80aa d83d 3949 2cbc 6990 88bd
00000010: 3c0e df3d 35f5 23be cd10 64be 78fb d93d
00000020: 54f3 58be 2c52 773c 8834 f4bc b152 08be
00000030: 698e b83d ce31 033e 2481 1a3e 8345 b13d
00000040: 2646 01be 70eb dbbc 3d3f 36bd a677 6e3d
00000050: 912d fabd 5312 86be 3448 90bd 40d1 48bd
00000060: b4a7 253e 6f8a 3ebe b1db 673d a8fe 67be
00000070: 451e bf3d 37b2 f33d f1df 1bbe 9a40 81be
00000080: 789a 2abd 6217 9dbe 31d2 acbd c7eb be3c
00000090: 2b74 483d cafd 9cbd 0bd4 b2be 80f9 26bc
000000a0: 71ba 9e3d 67e5 c8bd 9cec 233e 9cf6 6cbc
000000b0: 53b7 b93d a9c8 d0bd a41d 183e b254 9b3d
000000c0: 0c33 e4bc 992d 9cb9 5465 023d 1226 07bd
000000d0: 9844 6f3d 13ae 983c 0339 49be 3f80 03be
000000e0: 2e53 193d 04a2 8abe dddd fa3c 88e4 49be
000000f0: c762 19be cc35 bfbd b224 2c3e 8dd8 11be
00000100: 629b 7c3c 21c1 043e adf7 64be ae6a 49be
00000110: 8529 1cbe a2b6 3b3e 7748 1f3d 8d87 31be
00000120: 0ae9 c43d 818c bd3d 2a4a 33be 68b9 80bd
00000130: 3d0b 6fbe 12c9 c7bd dfbc 77be 5bfd 02bd
00000140: bd8d 0ebe df31 b5bd 6b1b 1d3e cdb7 1f3e
00000150: 089a 42be 102b 013e 2887 893d 12f6 1abe
00000160: 5f02 b0be a5cd a9bd 1a84 45be aacf d6bc
00000170: 4344 88bd 2966 f93c 159a 99bd bec3 283e
00000180: fd6c 473d 0b21 403e 68af 9fb9 4907 de3d
00000190: 8349 d0bc 0ab8 243e 4c80 a93d 849b 69bd
000001a0: 1417 96bc b1aa e73b 0001 d73d 61d8 89be
000001b0: 02e8 393e 8041 413c 2fcd 28be 895d 55be
000001c0: 1259 253d 252f 2fbe f6ab c8bd c1f0 e63d
000001d0: 531e a5bd b9e1 3c3d ff28 cdbc e52c 27bc
000001e0: d785 43be ffc5 543d b4a7 083e 8a5d 27bb
000001f0: a1c4 43be 1ab7 b33d e33b 9dbe 65d6 833d
00000200: 71e4 8c3d 6f0e 113e b493 52be 25ce 5dbe
00000210: 2c84 193e a979 b23d 276f 85be 2d14 9abd
00000220: d697 153e aec3 df3c 01c0 c6bd 0db2 5ebe
00000230: a873 c5bd 69f9 873d 290d 67be 2ad4 8dbd
00000240: 1854 693e 2670 0e3e a470 42be 7cd9 0ebd
00000250: 5847 acbc 8cec 4e3d 4a31 60be 7d06 d8bd
00000260: 217f 2cbe 0d26 adbe 52d8 e53c b3b9 20be
00000270: 3fa4 65be f49a 48be b5d6 e33d b767 d0bd
00000280: d770 0bbe 1e63 a0bd 0562 f03d 18af 15be
00000290: 87aa 67bd 2f6d ee3b 51e9 2ebe 484d 97bd
000002a0: b370 013e 381e 6a3d be73 8fbd 4449 1e3e
000002b0: d232 7ebe 6e9f f13d b326 e43d cb7b f7bc
000002c0: ce3b 9f3c e7f9 8d3d d2ce c5bd c29b 973b
000002d0: 2577 97be 28d7 d83d 5138 6b3d 5e41 563e
000002e0: 2d43 afbd bc24 913d 42c5 adbd 1976 19be
000002f0: 1c81 9ebe 655d c33c 5829 48bc 5721 9dbd
00000300: 95ae 713b c928 2cbe cca7 843d e95b 303e
00000310: 38ed ad3d a1fa c0bd b550 50be 76b7 9e3d
00000320: 9ccc 4dbd ce4d 1dbe 0f86 a93d c3e8 08be
00000330: 5953 42be a3b4 1d3e 56c5 a6be e190 0cbd
00000340: e264 053b 20ef bd3c f95e 6cbe d26b a8be
00000350: 3f20 07be fbef 9dbd ac55 093d 30a8 0c3e
00000360: a6e1 c6bd a393 253e 8dbc 4abe 845e d03c
00000370: 29d7 6dbe 862a 3e3c 642f 69bd 0957 b03d
00000380: 021e df3d a838 7e3b cde4 143d 04ae 30be
00000390: c3bf 0ebd 53d0 b83d e0e4 883d bc66 3d3e
000003a0: 5750 d83d 3fcf 103b 6d2b e93d 3e8a 80be
000003b0: fc9c bebd bdc7 363e 69ca bf3d 3f5f 74bd
000003c0: 86e9 6ebd 29bd 043d 5b51 f63d 3cdd 97bd
000003d0: f52c 2aba 244a 77bb b164 76be 5b47 41be
000003e0: a25e f2bc 36e8 ebbd 9fd9 403d 8dd4 913d
000003f0: 666c fe3d 2350 b0be 45c6 95bc d023 2f3e

fc3.bias f4 [10]
-0.032920662 -0.08287083 -0.06700842 -0.021006227 -0.05340561 -0.049126178 -0.08850024 0.016048897
0.0455389 -0.07231538
00000000: d1d7 06bd 2fb8 a9bd b63b 89bd 4015 acbc
00000010: d7bf 5abd 8838 49bd 9d3f b5bd fa78 833c
00000020: ff86 3a3d 161a 94bd
